cnn_v1.pt (torch, 206401 bytes, 6 tensors)

weight f4 [64, 1, 4, 4]
0	0x3fc6fa3c	1.5545115
1	0x3f9187ce	1.1369569
2	0x3fa9886a	1.3244755
3	0xbfdb8f8a	-1.715318
4	0x3f2ed3f1	0.68292147
5	0x40001836	2.0014777
6	0xbf5ab167	-0.85426944
7	0xbfd9fbe5	-1.7029997
8	0xbe8a66db	-0.27031597
9	0xbe3ae25d	-0.18250413
10	0x3f619397	0.8811583
11	0x3fcdc50f	1.6075763
12	0x3ec968d3	0.39337787
13	0x3e4c4d0c	0.19951266
14	0xc0155af3	-2.333676
15	0xbf72691c	-0.94691634
16	0x3f91444d	1.1348969
17	0x3e2bfd99	0.16795959
18	0xbe85627b	-0.26051697
19	0x40991d6f	4.784843
20	0x3e5bf09f	0.21478508
21	0xbeb2fea7	-0.3495991
22	0xbebfe475	-0.37478986
23	0x3f05a7f1	0.52209383
24	0xbeaca269	-0.3371766
25	0x3f337a56	0.70108545
26	0x3ee185a6	0.44047278
27	0x3fc218f5	1.5163866
28	0xbefac53b	-0.489786
29	0xc0093347	-2.1437547
30	0xbdbed9f0	-0.09318912
31	0x3d307702	0.043082245
32	0xbf30c50f	-0.6905069
33	0xbfbce3ad	-1.4756981
34	0xc02fd30f	-2.747257
35	0xbfded6e9	-1.7409335
36	0x3f8de038	1.1084051
37	0xbef7dc25	-0.48410144
38	0x3f3d1572	0.7386085
39	0x3e20871e	0.15676543
40	0x3f356ccc	0.70869136
41	0xc017ba3f	-2.3707426
42	0x3ec6689b	0.38751683
43	0xbecd7e36	-0.40135354
44	0xbfe7bb69	-1.8104068
45	0xc0cd984e	-6.424842
46	0x3f3aced6	0.72971857
47	0x4007cf94	2.1220446
48	0xc0d736ef	-6.7254558
49	0xbe1ade2c	-0.15123814
50	0xc05e24df	-3.4710004
51	0xbea76afb	-0.32698807
52	0x4013670c	2.3031645
53	0xc0a35917	-5.104625
54	0xc05077e5	-3.2573178
55	0xc07a701a	-3.9130921
56	0xbd21f075	-0.03953596
57	0xbfef5147	-1.8696679
58	0x3f0d477a	0.5518719
59	0xc0582f6c	-3.3778944
60	0xbbb43a79	-0.0055001345
61	0x3f9f9179	1.246627
62	0x3ee0c8c0	0.4390316
63	0xc0e932ee	-7.287467
64	0xc03fd824	-2.9975672
65	0xbfab817a	-1.3398888
66	0xc008a133	-2.1348388
67	0x3f0bf784	0.54674554
68	0xc03bf1ca	-2.9366326
69	0xbe77713e	-0.24164292
70	0xc006d165	-2.1065304
71	0xbf88cc55	-1.0687357
72	0xbe9ac133	-0.30225524
73	0x3dd8b283	0.105809234
74	0xc01cef7e	-2.4521174
75	0xc06f4d87	-3.739107
76	0x3ee7d014	0.4527594
77	0x3f79f7aa	0.9764353
78	0x4004b3c8	2.073473
79	0xc003be3d	-2.0584862
80	0x3f8f51cc	1.1196837
81	0xc04fd670	-3.2474632
82	0x3f7d3c52	0.98920166
83	0xbff9433a	-1.9473641
84	0x3ee7d61a	0.45280534
85	0xbe4d786d	-0.2006547
86	0xc03024a3	-2.7522361
87	0xc03d43b6	-2.9572577
88	0xbe97f9d9	-0.29682806
89	0x3ed94ea9	0.42442825
90	0x402efc91	2.7341654
91	0x4004591d	2.067939
92	0xc0753904	-3.831605
93	0x3eadc844	0.33941853
94	0xc024ce81	-2.575104
95	0x3dc7946f	0.09745108
96	0xc068317d	-3.6280205
97	0xc0f6bd16	-7.710582
98	0xbe800ddc	-0.25010574
99	0x3fd4e325	1.6631819
100	0xbf6dab11	-0.9283915
101	0x3f07e3fb	0.53082246
102	0xbe6b3a8e	-0.22971556
103	0x3eaafc37	0.3339555
104	0xc04363e1	-3.0529711
105	0x3e7db071	0.24774338
106	0x3e5213d7	0.20515381
107	0xbf6bbec6	-0.9208797
108	0x3d63f1c9	0.055650506
109	0xbf38de70	-0.7221441
110	0xbe2bb097	-0.16766582
111	0x401349a8	2.3013706
112	0xbe2a1417	-0.16609226
113	0xbe9347ec	-0.2876581
114	0xc0554afa	-3.3327012
115	0x3fe1e889	1.7649089
116	0xbef821b8	-0.48463225
117	0xbd27cf54	-0.040969208
118	0xbfbe2110	-1.485384
119	0xbde3ae93	-0.11117282
120	0xbfb76ec0	-1.4330673
121	0xbfe1f90b	-1.7654127
122	0xc00c3bda	-2.191153
123	0x3fbf1dc0	1.4930954
124	0xbfa0b156	-1.2554119
125	0x40047fa2	2.07029
126	0xbf5ab9c3	-0.854397
127	0x3e741b84	0.23838621
128	0xbff7a72d	-1.9347893
129	0xbf7cabdc	-0.98699737
130	0xbfea0586	-1.8282936
131	0x3fbfa097	1.4970883
132	0xbf112f3c	-0.567127
133	0xbf6363e6	-0.8882431
134	0xbf1cdc41	-0.6127358
135	0xbfaa06f0	-1.3283367
136	0xbf5c640c	-0.8609016
137	0xbf942bc1	-1.1575853
138	0x3f83e817	1.0305203
139	0xc04df992	-3.2183576
140	0x3fd13768	1.6345034
141	0x3fadc094	1.3574395
142	0xbe084677	-0.1330813
143	0xc014648e	-2.3186374
144	0xc0208ef5	-2.5087254
145	0xbf81c42a	-1.013799
146	0xbfe44b06	-1.7835395
147	0xc0ad4f95	-5.4159646
148	0xbfb8120a	-1.4380505
149	0x3f5ced44	0.8629954
150	0x3e8dc97e	0.2769279
151	0x3f26ed52	0.6520587
152	0xbf89e99f	-1.077442
153	0xbf3be24d	-0.7339218
154	0x3f687150	0.907979
155	0x3f849e24	1.0360761
156	0xbc35f7c2	-0.011106433
157	0x3f0fb226	0.5613121
158	0xbff5f5b8	-1.9215612
159	0x3ec97e8a	0.39354354
160	0x3ed3823a	0.41310292
161	0xc0acfcf9	-5.4058805
162	0x3f3c5b41	0.7357674
163	0xbf90fc6b	-1.1327032
164	0xc0078c0e	-2.1179233
165	0x401d372c	2.4564924
166	0xbfafc971	-1.373335
167	0xbfd5b6b1	-1.6696378
168	0x3f951e0b	1.1649793
169	0xbf904f6d	-1.1274239
170	0x3fddb8d0	1.7322025
171	0xc0388bcb	-2.8835323
172	0x3eca63ef	0.39529368
173	0xbfff1765	-1.9929014
174	0xbf070ff2	-0.52758706
175	0xc0c212ed	-6.0648103
176	0x3e73ec16	0.23820528
177	0xbf2ad19c	-0.6672609
178	0xbf9366d5	-1.1515757
179	0xc0116e56	-2.2723594
180	0x3fc5c86a	1.5451787
181	0xbf2a417c	-0.6650617
182	0xbec0c94f	-0.37653586
183	0x3f965079	1.1743308
184	0xbc4849cc	-0.012224626
185	0xc0832dbb	-4.0993323
186	0xbffc3f1e	-1.9706762
187	0x402f62f7	2.7404153
188	0x3da63ff6	0.08117668
189	0xc002d40d	-2.0441926
190	0xbf8d9ef0	-1.1064129
191	0xc0452238	-3.0802135
192	0xbfb87fbe	-1.4413984
193	0xbfbcc12a	-1.4746449
194	0xc0bc6ce6	-5.8882933
195	0x3f4d87c7	0.80285305
196	0xbf16fdfc	-0.589813
197	0x3d1e09fc	0.03858374
198	0xbd98e743	-0.07465985
199	0xbffdf9f0	-1.98419
200	0xbef384ad	-0.4756216
201	0xbe0b114f	-0.13580821
202	0x3f97c65a	1.1857407
203	0x40467df9	3.1014388
204	0x3f35900a	0.7092291
205	0x3ed36ea6	0.41295356
206	0xbfcb029f	-1.5860175
207	0xc0218f24	-2.5243616
208	0xbdd75ae1	-0.10515381
209	0xbd169ba0	-0.03676951
210	0xbdd81208	-0.10550314
211	0xbe63fb6e	-0.22263882
212	0xbe17919d	-0.14801641
213	0xbe825ac1	-0.25459865
214	0xbd32df9a	-0.043670274
215	0x3dae0b67	0.084982686
216	0xbd4d9f55	-0.05020078
217	0xbeb303a2	-0.3496371
218	0xbc8cc09c	-0.017181687
219	0xbd208f55	-0.039199192
220	0xbe1ed55d	-0.15511079
221	0xbe6f3ce5	-0.23363073
222	0xbe00bb71	-0.12571503
223	0xbdc7e399	-0.09760208
224	0x3e039858	0.12851083
225	0x3e3113dc	0.17292732
226	0xbe720238	-0.23633659
227	0xbdb8c51f	-0.09021973
228	0xbe8b2a8b	-0.27180895
229	0xbe6f78ba	-0.23385897
230	0xbe985018	-0.29748607
231	0xbd107f56	-0.035277687
232	0xbd909d7d	-0.070612885
233	0xbe406dae	-0.1879184
234	0x3a700727	0.0009156339
235	0xbe645dfe	-0.2230148
236	0xbe36b41e	-0.17842147
237	0xbe6a368f	-0.22872375
238	0xbcda691f	-0.026661454
239	0xbe2dcfc3	-0.16973786
240	0xc0bac97e	-5.837096
241	0xbf99277d	-1.1965176
242	0xc05f0984	-3.4849558
243	0xbfe3f7fe	-1.7810056
244	0x3ee924ff	0.45536038
245	0xbf40bb70	-0.75286007
246	0x3f8eb298	1.1148252
247	0xbe7588d2	-0.23977974
248	0x3f31738b	0.6931693
249	0xc074d94e	-3.8257632
250	0xbf20ea00	-0.62857056
251	0xbfe93cfb	-1.8221735
252	0x3fd5b218	1.6694975
253	0xbf6495f2	-0.892913
254	0x3f998756	1.1994426
255	0xc02840a8	-2.6289463

bias f4 [64]
0	0xc08c1aa1	-4.3782506
1	0xc002dcc1	-2.0447237
2	0xc0411007	-3.0166032
3	0xbfc38199	-1.5273925
4	0xc0951eca	-4.6600084
5	0xc00d6685	-2.2093823
6	0xc02d18b7	-2.7046335
7	0xc030fe6f	-2.7655294
8	0xc068cf0e	-3.6376376
9	0xbf95a1b0	-1.1689968
10	0xbee923a1	-0.45534995
11	0xbee56a4e	-0.44807667
12	0xbfc4ee4a	-1.538522
13	0xbde375ad	-0.11106429
14	0xbd9f2d2e	-0.07772289
15	0xc03655c9	-2.848986
16	0xbfc85ac5	-1.5652701
17	0xbfbe59e1	-1.4871179
18	0xc03f56fd	-2.9896843
19	0xbe3a7ae5	-0.18210943
20	0xc02fe068	-2.7480717
21	0xc02c4275	-2.6915562
22	0xbf321e69	-0.6957765
23	0xc00e1064	-2.2197504
24	0xbfef1282	-1.8677523
25	0xc036c957	-2.8560388
26	0xc0006b0f	-2.0065343
27	0xc06829bb	-3.627547
28	0xbfec50d5	-1.8462168
29	0xc0032eac	-2.0497236
30	0x3e913f8a	0.2836879
31	0xc018ae1c	-2.3856268
32	0xbfa649a2	-1.2991221
33	0x3f3ac944	0.72963357
34	0xc0a67847	-5.2021823
35	0xc0684904	-3.6294565
36	0xc0195cb8	-2.396284
37	0xc08da832	-4.4267817
38	0xc0116617	-2.271856
39	0xc04290f9	-3.0400984
40	0xc0391618	-2.8919735
41	0xc0191ebd	-2.392501
42	0xc02acd31	-2.668774
43	0xc06507f9	-3.5786116
44	0xc00e2c68	-2.2214603
45	0xc035b034	-2.8388796
46	0xc032c426	-2.793222
47	0xc0118463	-2.2737052
48	0xbe905267	-0.28187868
49	0xc059503f	-3.3955228
50	0x3f840fcc	1.0317321
51	0x3d860397	0.065436535
52	0xc0064971	-2.0982325
53	0x3fa2da69	1.2722903
54	0xc001dcd4	-2.0291033
55	0x3f0d0b99	0.5509582
56	0xc04b155f	-3.1731794
57	0xbf301a4f	-0.68790144
58	0xc03a9693	-2.9154403
59	0xbfff066e	-1.9923837
60	0xbfbeeddf	-1.4916342
61	0xc024aadb	-2.5729282
62	0x3f86e541	1.0538713
63	0xc06e4bd5	-3.7233784

weight f4 [64, 768]
0	0x3f6378d7	0.8885626
1	0xc053a047	-3.3066576
2	0xbe420465	-0.18946989
3	0xc00d3ffb	-2.20703
4	0x3e3f331d	0.18671842
5	0xc001672d	-2.0219223
6	0xbfde7968	-1.73808
7	0x3fccac4f	1.5990084
8	0x3fd52af7	1.6653737
9	0x3fe2594a	1.7683499
10	0xbfac7f42	-1.3476336
11	0x3e9a1854	0.30096686
12	0xc01294b1	-2.2903254
13	0x408232bd	4.0686936
14	0xc062b67b	-3.5423877
15	0x4059b64c	3.4017515
16	0xbf84d0c2	-1.0376208
17	0x3fed749e	1.8551214
18	0xbe4a3841	-0.19748022
19	0x3f27d457	0.6555838
20	0x3e806969	0.25080422
21	0x3e28a487	0.16469012
22	0x3fd267e2	1.6437953
23	0xbe069779	-0.1314372
24	0xbd36dff8	-0.044647187
25	0xc041b597	-3.0267084
26	0xbceeba6b	-0.029141625
27	0x3f8d4d03	1.1039127
28	0xbfb8468e	-1.4396532
29	0x3fb8c37a	1.4434655
30	0x40099eb1	2.1503108
31	0x3dea6d6b	0.11446651
32	0xbe34bfef	-0.17651342
33	0x4066fa57	3.6090295
34	0xc0704df2	-3.7547574
35	0x4051588a	3.271029
36	0xc02a0909	-2.6568015
37	0xbed80d8f	-0.42197844
38	0x3fdefad0	1.7420292
39	0x3fdf2a8b	1.7434858
40	0xbf510d2a	-0.8166071
41	0x3f47e91f	0.7809009
42	0xbc942bb0	-0.018087238
43	0x3f2fdf47	0.6870007
44	0xbfa65f54	-1.2997842
45	0x401317c1	2.2983248
46	0x3e097c72	0.13426378
47	0xbd535944	-0.051598802
48	0x3f192ec2	0.5983697
49	0xc008f494	-2.1399279
50	0x3f2a87cf	0.6661348
51	0x405020bf	3.2519987
52	0x3f814d29	1.0101672
53	0x3fcbca14	1.5921044
54	0xc062a19f	-3.5411146
55	0xc05df5d5	-3.4681294
56	0x405d3855	3.4565632
57	0x3f88073f	1.0627211
58	0xbfdcf4d8	-1.726222
59	0x405c99bb	3.446883
60	0xbf989c90	-1.1922779
61	0x3f17115b	0.5901086
62	0xbe886ac9	-0.2664397
63	0x40251fd7	2.5800683
64	0x3ebf24d4	0.37332785
65	0xbfd093bf	-1.6295089
66	0xc031f9e1	-2.7808764
67	0x3e904ff1	0.2818599
68	0x3d061bf0	0.032741487
69	0x3e0e14d4	0.13875133
70	0xc018fbe3	-2.390374
71	0xbf5db38b	-0.86602086
72	0x3cf78f2a	0.030219633
73	0x4096342b	4.693868
74	0xbfa4cb31	-1.2874509
75	0x40a0b9b5	5.0226693
76	0x3f2a2507	0.6646275
77	0xbe25b03d	-0.16180511
78	0xc04c20e0	-3.1895065
79	0x3f1ddc32	0.61664116
80	0xbf90cdd8	-1.1312819
81	0xbf30ebf6	-0.6911005
82	0x3e8da1aa	0.27662402
83	0xbe414488	-0.18873799
84	0xbf53149a	-0.8245331
85	0x407b9094	3.9306993
86	0xbfcc437d	-1.5958096
87	0x3f533c0b	0.82513493
88	0xbff49a95	-1.9109675
89	0x3fdac0c5	1.7090079
90	0xbf1f2063	-0.62158793
91	0x3f69dd50	0.9135332
92	0xbfcf7927	-1.6208848
93	0xbf48488d	-0.78235704
94	0xbebaed79	-0.36509302
95	0xc02965a9	-2.6468298
96	0x403255e8	2.7864933
97	0xc0a87ccb	-5.2652335
98	0x3fc4162d	1.5319268
99	0xbd471e1f	-0.04861271
100	0x4007789e	2.116737
101	0x3feea318	1.8643522
102	0x3fb06a7c	1.3782496
103	0xbe4b89fb	-0.19876854
104	0xbeb9a4de	-0.36258596
105	0xbfb26001	-1.3935548
106	0xbe8f8c78	-0.28036857
107	0x3fa7e25f	1.3115958
108	0x3e9a4ca6	0.30136603
109	0xc037a5d7	-2.869497
110	0x4044dd08	3.0759907
111	0xbeb39ab2	-0.3507896
112	0x3eb9ede9	0.36314324
113	0xbf95dcde	-1.1708028
114	0x3b877605	0.004133942
115	0xbeab0190	-0.3339963
116	0xbf09c399	-0.53814083
117	0x3f92a62d	1.1456963
118	0xbf03dd95	-0.5150998
119	0xbfa90921	-1.3205911
120	0xbf6ebc93	-0.9325649
121	0x3d00772b	0.031363647
122	0x3fee8a19	1.8635894
123	0xbf5366c9	-0.8257871
124	0x3fbbca46	1.4671104
125	0xbf0f5b20	-0.5599842
126	0xc034cff5	-2.8251927
127	0xc00b3d43	-2.175614
128	0x3f26223e	0.64896
129	0x3f521813	0.82067984
130	0xbf4ceca9	-0.80048615
131	0x3eeff012	0.46862847
132	0xbfcbba3d	-1.591621
133	0xbedf40ad	-0.4360403
134	0x3f00f343	0.5037119
135	0xbf4b7283	-0.79471606
136	0xbf7269aa	-0.9469248
137	0xbfada6df	-1.356655
138	0xc04856dd	-3.1303017
139	0xc0316c8a	-2.7722497
140	0x3f607c32	0.87689507
141	0x3fc0c585	1.5060278
142	0xc08bbb6d	-4.366629
143	0xc0319af3	-2.7750823
144	0xbf72670d	-0.94688493
145	0x3e89b5a0	0.2689638
146	0xc02378c7	-2.5542467
147	0x3d67b3f4	0.0565681
148	0x3f49c1fe	0.78811634
149	0x401e4cdc	2.4734411
150	0xc0435307	-3.0519426
151	0xc010bc95	-2.2615101
152	0xbfefa9c1	-1.872368
153	0xc0185f28	-2.3808079
154	0xc0324645	-2.785539
155	0xbf60a4d7	-0.87751526
156	0x3d7dd7a0	0.061973214
157	0x3e2f3bfb	0.17112724
158	0x3e123493	0.14277868
159	0x3da41129	0.080110855
160	0x3dc125cf	0.094310395
161	0xbd15eaa0	-0.03660071
162	0xbab1b442	-0.0013557749
163	0xbc869ddf	-0.0164327
164	0xbe2e30c9	-0.17010798
165	0xbe47370a	-0.1945459
166	0xbd290400	-0.04126358
167	0xbe2168d7	-0.1576265
168	0x3d72fedc	0.059325084
169	0xbd2691e5	-0.04066648
170	0x3d8a3dfa	0.06750102
171	0x3c8a3c9b	0.016874602
172	0x3c6bb52f	0.014386459
173	0x3c82f8bb	0.015987745
174	0x3d025dc4	0.031827703
175	0xbd2ec078	-0.04266402
176	0x3dbc2f9e	0.0918877
177	0xbbfbc318	-0.007683169
178	0x3d08f6c8	0.033438474
179	0x3d928fc9	0.07156331
180	0x3e75875d	0.23977418
181	0x3f280d58	0.6564536
182	0x3e538e13	0.20659666
183	0x4012c3ed	2.2932084
184	0xbf7c87d9	-0.9864479
185	0x3e8c5d2e	0.2741484
186	0x4026c803	2.6059577
187	0x3edbc18d	0.42921105
188	0xc028a67f	-2.635162
189	0x40693f2f	3.6444814
190	0xbce72070	-0.02821371
191	0x3f1566c3	0.58359927
192	0xbf0694aa	-0.52570593
193	0x3fe88262	1.816479
194	0x4009f55c	2.1556005
195	0xbf9f3f99	-1.2441283
196	0x3facdc6d	1.3504769
197	0xbf2c5bb3	-0.6732742
198	0xbfacb29a	-1.3492005
199	0xbf649a66	-0.89298093
200	0x3d5bd4ab	0.053669613
201	0xbde3c5ac	-0.11121687
202	0x404aab71	3.166714
203	0x4085df52	4.183511
204	0xc01de813	-2.4672897
205	0x3e1f2558	0.1554159
206	0x3fdd8e1e	1.7308996
207	0xbf8607f3	-1.0471176
208	0x3e975fde	0.29565328
209	0xbfe616ce	-1.797571
210	0x3e7bcc9c	0.24589771
211	0xbe444164	-0.1916557
212	0xc0932659	-4.598431
213	0x403f1892	2.9858747
214	0xc003db22	-2.0602498
215	0xc0432d78	-3.0496502
216	0x3f3fab8f	0.7487115
217	0x3f79ac8c	0.9752891
218	0x3ef23e75	0.47313276
219	0x3e99365c	0.29924285
220	0x4056b86b	3.355006
221	0xbf9ae169	-1.210004
222	0xc03c03d2	-2.9377332
223	0x402c2c93	2.6902206
224	0xbedbc00a	-0.42919952
225	0x3f2d25d5	0.6763585
226	0xbd89a19e	-0.06720279
227	0x3f8bdf00	1.0927429
228	0xbdc66f35	-0.0968918
229	0x3e0a23cb	0.13490216
230	0x3f8b3ab3	1.0877289
231	0xbf4fff8f	-0.81249326
232	0x3fb7d546	1.4361961
233	0x3ea4bfa0	0.32177448
234	0xbe91d837	-0.2848527
235	0x3ff794d4	1.9342294
236	0x3f4929d8	0.78579473
237	0xc0084cb3	-2.1296813
238	0xbfcc218a	-1.5947735
239	0xbf31cc65	-0.69452506
240	0xbe8b78c5	-0.27240577
241	0xc02336e0	-2.5502243
242	0x3f6bfcdf	0.92182726
243	0xbfbc7884	-1.4724278
244	0xbe7e6238	-0.24842155
245	0xbfb25f6e	-1.3935373
246	0xbe97fe4e	-0.29686207
247	0x3fdb3dca	1.7128232
248	0xbf455cd5	-0.77094775
249	0xbe9493e4	-0.29019082
250	0x3fd6987b	1.6765283
251	0xbf294776	-0.66124666
252	0xbf989a42	-1.1922076
253	0x3fd145a3	1.6349376
254	0x3eb0db79	0.34542444
255	0x3d168508	0.036747962

bias f4 [64]
0	0x3f1a806b	0.603522
1	0x3ec9eaf2	0.39437062
2	0xbfa4e718	-1.2883024
3	0xbf976a7b	-1.182937
4	0x3f47a5c3	0.7798731
5	0xbfecdece	-1.8505495
6	0xc03317d6	-2.7983298
7	0xc06443d9	-3.566641
8	0x4062cc2f	3.5437124
9	0xc0342daa	-2.815287
10	0xc025cdd3	-2.5906875
11	0x3ec14864	0.37750542
12	0x40071cda	2.111136
13	0xbf82b284	-1.0210729
14	0x401c19c4	2.4390726
15	0xbf663386	-0.8992237
16	0x3fb294c0	1.3951645
17	0xbf3c8926	-0.7364677
18	0xc0035ae0	-2.0524216
19	0x3fc52baa	1.540395
20	0x3e8b7040	0.27234077
21	0x3eb1b79a	0.3471039
22	0x3f8e9288	1.1138468
23	0x3fd5baac	1.6697593
24	0x3d4290e0	0.047501445
25	0xbf03ce3c	-0.51486564
26	0xbf5ed8e5	-0.87049705
27	0xbe50dad9	-0.20395984
28	0x402f44c0	2.7385712
29	0xbff6652e	-1.9249628
30	0xc04dd9dd	-3.2164223
31	0x3f4ed026	0.8078636
32	0xbfd7e0fa	-1.6865532
33	0xbe284bf7	-0.16435228
34	0x3e93d69e	0.28874677
35	0xbedbe380	-0.42947006
36	0x3d4a52bd	0.04939531
37	0xc03e10d3	-2.9697769
38	0x3f0e3bca	0.5555998
39	0x3f1a2821	0.6021748
40	0xbdcfaae9	-0.101400204
41	0x40472591	3.1116679
42	0x3ea24806	0.31695575
43	0x3e5a9dcd	0.21349259
44	0xbe82efba	-0.25573522
45	0xbed389ff	-0.4131622
46	0xbf062af7	-0.5240931
47	0x400b95db	2.1810215
48	0x3f3c965c	0.7366693
49	0xbf479094	-0.77954984
50	0x3e47adf4	0.19499952
51	0x3f79de23	0.9760458
52	0x3e5b8b48	0.2143985
53	0xbecc489b	-0.39899144
54	0xc03b7cfd	-2.9295037
55	0x3f246c5c	0.64227843
56	0xbe43a855	-0.19107182
57	0xbfb7e83e	-1.436775
58	0xbf2dc466	-0.67877805
59	0x3f16baf4	0.5887902
60	0xbdf3258d	-0.118723966
61	0x3f41c30c	0.7568824
62	0xbf042bd9	-0.51629406
63	0x3e51870a	0.2046167

weight f4 [7, 64]
0	0xbe84f3a1	-0.25967124
1	0x3f06b819	0.5262466
2	0x3ec9a7b1	0.3938575
3	0xbedcb133	-0.43103942
4	0xbdb585d3	-0.088634156
5	0x3eaa95d8	0.33317447
6	0xbf3731ab	-0.7156016
7	0xbf77bf9e	-0.9677676
8	0x3fd80190	1.6875477
9	0x3f465097	0.7746672
10	0x3f4949ba	0.7862812
11	0xbef7acf3	-0.48374137
12	0x3f72588c	0.9466636
13	0xbf50e85e	-0.81604564
14	0x3f656639	0.89609104
15	0xbfdb8e67	-1.7152833
16	0x3e5f4d1a	0.21806756
17	0xbf44726f	-0.7673711
18	0xbf90690e	-1.128206
19	0x3f8105c8	1.0079889
20	0x3edfb52b	0.43692908
21	0xbf8a32e8	-1.0796785
22	0x3f4f8b75	0.8107217
23	0x3f9b80bf	1.2148665
24	0x3ecbce09	0.3980563
25	0xbecc229c	-0.39870155
26	0xbe8a7b7a	-0.2704733
27	0xbee8d023	-0.45471296
28	0xbee3ebee	-0.44515938
29	0x3ddfced0	0.10928118
30	0xbe8dcc30	-0.27694845
31	0xbeb09f3e	-0.34496492
32	0xbf8739b5	-1.0564486
33	0xbe7e1eb2	-0.24816397
34	0xbf8e8f68	-1.1137514
35	0xbf6ce2f1	-0.92533785
36	0xbedd1665	-0.43181148
37	0xc00b366b	-2.1751964
38	0x3f51d2cf	0.81962293
39	0x3bb4a530	0.005512856
40	0x3e00d2b7	0.12580381
41	0x3e4aba62	0.19797662
42	0x3f2ecc9d	0.68280965
43	0x3ee86767	0.4539139
44	0xbf48f278	-0.7849498
45	0xc0091d0f	-2.1423986
46	0xbf502a3e	-0.81314456
47	0xbf7126e8	-0.9419999
48	0x3f1578e9	0.5838762
49	0xbf8119af	-1.0085963
50	0x3fa3404e	1.2753999
51	0x3fe14e24	1.7601972
52	0xbe10bf1c	-0.14135402
53	0x3f51673c	0.8179815
54	0xbf7d37bf	-0.98913187
55	0x3f7c1d22	0.98481953
56	0xbe4b0f33	-0.19830017
57	0x3f16b57f	0.5887069
58	0xbeaaf365	-0.3338882
59	0x3faa16ce	1.328821
60	0xbf042725	-0.5162223
61	0xbf6c9f95	-0.92431
62	0xbf0e353a	-0.5554997
63	0x3f72e0d3	0.94874305
64	0x3e5585ea	0.20851865
65	0x3e6d8200	0.23194122
66	0xbf1b71c3	-0.6072046
67	0xbf3b5444	-0.73175454
68	0xbf87191e	-1.055454
69	0xbf8e4cee	-1.1117227
70	0xbf90d118	-1.131381
71	0xbf77977d	-0.9671553
72	0x3fb5215d	1.4150807
73	0xbf74f190	-0.95681095
74	0xbf3c8007	-0.73632854
75	0xbd8bbfee	-0.06823717
76	0xbf5be7df	-0.8590068
77	0x3f110149	0.56642586
78	0x3f8939d8	1.0720778
79	0xbf700316	-0.9375471
80	0x3f36bb30	0.71379375
81	0x3eab5fec	0.3347162
82	0xbf4360ea	-0.76319754
83	0xbd23f085	-0.0400243
84	0x3ea1ce88	0.31602883
85	0x3cba5bdc	0.02274888
86	0x3f150f67	0.5822663
87	0x3f7d30b0	0.98902416
88	0xbf3aa1a2	-0.7290288
89	0xbf5ed7e7	-0.8704819
90	0x3f12be70	0.57321835
91	0x3e645b19	0.22300376
92	0x3f1cc463	0.6123716
93	0xbb95ca18	-0.0045712106
94	0xbfb15e52	-1.3856909
95	0xbf0a8e56	-0.5412344
96	0xbf3ca499	-0.73688656
97	0x3fb115e9	1.3834811
98	0x3e25e6c1	0.16201307
99	0xbf8b6ed2	-1.0893195
100	0xbf2e8ce6	-0.68183744
101	0xbe0eb749	-0.13937105
102	0xbf2b2adc	-0.66862273
103	0x3e37d71a	0.17953148
104	0x3f3db9e1	0.74111754
105	0x3f888cf6	1.0668018
106	0x3e48dd91	0.19615771
107	0xbbd38c91	-0.006455966
108	0x3e6e96dd	0.23299737
109	0xbf140a17	-0.57827896
110	0xbf15f010	-0.5856943
111	0x3ebe802f	0.3720717
112	0x3fb50bea	1.4144261
113	0xbf0064de	-0.5015391
114	0x3ededb2a	0.43526584
115	0x3fad0b97	1.3519162
116	0x3f9031be	1.126518
117	0xc006e8c1	-2.1079562
118	0xbf8d76c7	-1.1051873
119	0xbfa76a9e	-1.3079412
120	0xbefeef1b	-0.49791798
121	0xbf957489	-1.1676189
122	0x3f2436b2	0.6414596
123	0xbf735206	-0.9504703
124	0x3e561cbc	0.20909399
125	0x3f5a68cc	0.8531616
126	0xbd568493	-0.052372526
127	0x3fc1283e	1.5090406
128	0xbd744b23	-0.05964197
129	0xbff9326e	-1.9468515
130	0xbe431686	-0.19051561
131	0xbec85a9b	-0.39131626
132	0xbfa09054	-1.2544045
133	0x3e37f754	0.17965442
134	0xbf84dfaf	-1.0380763
135	0xbfa5ca29	-1.2952319
136	0x3f93c19b	1.1543459
137	0x3f67e99a	0.9059082
138	0xbf8f5f1a	-1.1200898
139	0xbf4e4bb2	-0.8058425
140	0x3f858252	1.0430396
141	0x3f5d03cc	0.8633392
142	0x3f780304	0.968796
143	0x3f02f7ba	0.5115925
144	0x3f52a7d8	0.8228736
145	0x3f8d1655	1.102244
146	0xbd2edf76	-0.042693578
147	0xbfa41b58	-1.2820845
148	0xbe4a95e6	-0.19783744
149	0xbe5b7614	-0.21431762
150	0x3e38bc73	0.18040638
151	0x3edb77da	0.42864877
152	0xbf2ea9b5	-0.682277
153	0xbf8b0a2b	-1.0862478
154	0x3fd5dbcb	1.67077
155	0x3f3d48d4	0.7393925
156	0xbfbb254b	-1.4620756
157	0x3e8b800c	0.2724613
158	0xbfa821b0	-1.3135281
159	0x3e0dc3e2	0.13844255
160	0xbe5b8c46	-0.21440229
161	0x3d376360	0.044772506
162	0x3f69055a	0.9102379
163	0xbec6dbbd	-0.38839522
164	0x3e9ffb75	0.31246534
165	0xbfce7214	-1.6128564
166	0x3ef62a07	0.4807894
167	0x3fa257aa	1.2683003
168	0xbf21328c	-0.62967753
169	0x3f8b26af	1.087118
170	0xbf179d8c	-0.5922477
171	0x3ffad158	1.9595137
172	0x3d35bc29	0.044368897
173	0x3f6f1f17	0.93406814
174	0x3f3592df	0.7092723
175	0x3f7b6a80	0.9820938
176	0x3e81e53a	0.25370198
177	0xbec71c21	-0.38888648
178	0x3fa1a895	1.2629572
179	0xbf0989bf	-0.5372581
180	0x3f81c67a	1.0138695
181	0xbf585078	-0.84497786
182	0xbc231b76	-0.009955278
183	0x3f1eb2d6	0.6199163
184	0xbfef9634	-1.8717713
185	0xbf48aef0	-0.78391933
186	0x3f9ebbd3	1.2401069
187	0x3f0f935c	0.5608423
188	0xbf863368	-1.0484438
189	0xbf7be3e2	-0.98394597
190	0xbf4036bd	-0.75083524
191	0xbfc11b13	-1.5086387
192	0x3f83124a	1.0239956
193	0x3dd1fdee	0.10253511
194	0x3f7d47dc	0.98937774
195	0xbf85924d	-1.0435272
196	0xbf535387	-0.8254933
197	0x3eeeae6e	0.46617454
198	0xbf70815e	-0.939474
199	0xbf84a743	-1.0363544
200	0x3fba39b3	1.4548858
201	0xbf0eaaa9	-0.55729157
202	0xbed3d28f	-0.4137158
203	0x3eb21669	0.34782723
204	0x3f4142a2	0.754923
205	0xbf5053fb	-0.81378144
206	0xbd3f613b	-0.046723586
207	0x3ef00f03	0.46886453
208	0x3ef1e771	0.47246888
209	0xbc4c732c	-0.012478631
210	0x3e1029f1	0.140785
211	0x3ddcabb3	0.107749365
212	0x3e38aeeb	0.18035476
213	0x3fde5cb9	1.7372047
214	0xbebe4467	-0.37161562
215	0x3ef14e2f	0.47129962
216	0x3f29092a	0.6602961
217	0xbf2fd2c7	-0.68680996
218	0x3dd60d60	0.1045177
219	0xbeb490d2	-0.3526674
220	0x3f2a4a5b	0.6651971
221	0xbf95235d	-1.1651417
222	0xbf8d37d6	-1.1032665
223	0x3fc0cd4c	1.5062652
224	0xbf3812ea	-0.7190386
225	0xbf9bfa48	-1.2185755
226	0x3fb6c9e1	1.4280359
227	0xbed8b622	-0.42326456
228	0x3f1e8ac7	0.6193051
229	0xbfc28d72	-1.5199416
230	0x3ed816a0	0.42204762
231	0xbe41b8bc	-0.18918127
232	0xbf352fd3	-0.707761
233	0x3f27960e	0.6546334
234	0x3f2f2055	0.6840871
235	0x3fce23f2	1.610472
236	0x3fa8ad35	1.3177859
237	0xbed3e37e	-0.413845
238	0xbe8cfe7b	-0.27537903
239	0x3f89a5eb	1.0753759
240	0x3da52e84	0.08065513
241	0xbef12a2c	-0.47102487
242	0x3eb88fb1	0.36047128
243	0x3f05657a	0.52107966
244	0xbc87d8a0	-0.016582787
245	0x3f276b79	0.65398365
246	0xbf312237	-0.6919283
247	0xbe0ea198	-0.1392883
248	0xbf2d757f	-0.6775741
249	0xbfaf8842	-1.3713458
250	0xbf09ca6d	-0.538245
251	0x3efae98a	0.490063
252	0xbf8b44c2	-1.0880358
253	0xbe6f5dad	-0.23375578
254	0xbf97112d	-1.1802117
255	0xbf405851	-0.7513476

bias f4 [7]
0	0x4001494b	2.0200984
1	0x405cf0b3	3.452191
2	0x3fd2e596	1.6476314
3	0x4088fdf2	4.280999
4	0x407d506f	3.9580343
5	0x40453c8f	3.0818212
6	0x40131c5e	2.2986064
