reward_v2.pt (torch, 34143 bytes, 6 tensors)

weight f4 [64, 84]
00000000: ffaf 11c1 5749 5ac0 2c8e 98c0 4e8b 9cc0
00000010: 56c1 3dc0 8c26 aec0 e01d 7341 b3b0 f63f
00000020: 4528 46c0 f9ff 2cc1 8d44 2440 f549 2a40
00000030: 4c5d c2bf 4bf4 b440 cbc1 9440 3785 5540
00000040: 91ea 943e b760 cd40 7803 1e40 dcf5 bc3d
00000050: d05c 8240 ceea 6d3d 91e3 773f 7cf9 c0c0
00000060: 4e7c e63f f63c 00bf 47ef 9fbf 22f3 3c40
00000070: a03a 37c0 6927 b33d 1f15 5240 bceb 8340
00000080: c24f 3cc0 40b8 cebf 24f2 9a40 65e6 1640
00000090: 2356 013f efa1 c53f bded 40bf 8d6b 083f
000000a0: 0a0d 59c0 0cca 893e 50e8 9640 c0e5 163f
000000b0: 1388 d5c0 a343 e9c0 2fb8 6a40 95c3 79c1
000000c0: 5f11 ed3f 87c5 05c0 981e 55c0 4906 a2bf
000000d0: bc00 bdc0 def1 ea40 f273 f3c0 7c5d fcbf
000000e0: 0516 1640 143e 1ac0 0ed3 36be c340 7cbf
000000f0: 1938 6640 e5c0 83c0 9ee1 c640 9aeb 9f3f
00000100: 4b21 cdbf 4d2f c73f f4fc 833f 8cca b740
00000110: 5219 23c0 6441 ff40 3361 0641 ca1d 5f40
00000120: 3381 d5bd 0e0e 7b3f 7ac2 2b40 c812 7f3f
00000130: 20bc c040 7626 683f 4260 983f 05bd 82bf
00000140: 1f21 3ec0 88a1 9440 6c5e afc0 028d 703f
00000150: 8eb7 7bc0 565c babf bdf9 87c0 db93 7fc0
00000160: 22a6 3dc0 74a4 6e3d 028f 5ac0 2fae 563f
00000170: c10e c5bf 7d12 b4c0 c8c0 77bf 4f64 a340
00000180: 7c2a 26c0 a422 c3c0 3305 4b3e fb60 16c0
00000190: 9318 e23e 8740 17c0 e132 69c1 4b31 6cc0
000001a0: a923 a940 964a 8340 3b23 04bf 7ee0 0d3f
000001b0: 6d79 b03f 0f62 ecbc 1639 31c0 a22f 4940
000001c0: 00e9 e1bf 3fea 54c0 a69a 893f 32e4 fabe
000001d0: ccde 4cc0 fc98 893f 91d0 a8be 85a9 be3e
000001e0: 4bd0 ab40 b639 99be 0b4e a0bf db90 65c0
000001f0: 3833 5dc0 765c 45c0 2a3d 2fc1 af2c 93c0
00000200: 8775 e1c0 aeb7 f0c0 7377 66c0 7e44 f2c0
00000210: 418d 963f e8b7 0dc0 8574 33c0 3947 dec0
00000220: 268c c5c0 cf28 1ec1 a0b5 c6c0 1b59 043f
00000230: 17db bebf dd5f 8cc0 461e febe a773 a0bd
00000240: b188 8ec0 dfe8 83c0 22c4 84c0 bb38 1ac0
00000250: 677b 23c0 2d3b d8be 3722 1cbf 4611 893f
00000260: 4898 21be a277 9440 f01b 97bf e201 9dbf
00000270: d88e 5b3f bbd8 4340 681e ca40 dc3f a53f
00000280: 88a0 be3d 87c1 82bc 4241 6e40 1489 5440
00000290: befe 3a40 9a74 5b40 5a58 aa3f ae22 513f
000002a0: 0227 363c aeab 1fbd 12a2 29be 7ca8 b9bd
000002b0: 7b0c 70bc ef37 59bd b777 e73d eea7 04be
000002c0: aa37 953e 9237 acbd fdf8 00be 0de9 523b
000002d0: 5760 73be 911d 7ebe 9313 8e3d 90aa 11be
000002e0: c755 07bd 3701 103d 869c ddbd 9c7d b7bd
000002f0: 546d 92be 4706 c0bd 658e 7fbd 7968 41be
00000300: 5b95 4c3e cb5b 5cbd 93ac 58be 3204 f1bd
00000310: 8730 043d ac5c febd b9e3 46be e724 bb3c
00000320: c70c 90be 2781 44be 7b07 c3be 8892 523d
00000330: 3b37 39be 485f c1be 0cc9 83be f413 a3be
00000340: 2e9a 04be 54a4 03be c86e 98be 1bc5 8bbd
00000350: 946a 42be 44e0 bbbd 5421 09be d9a3 1abe
00000360: 0d9f 29be 743c 17be 49e0 2cbe f19a c8bd
00000370: 688c 1ebe 4d02 2ebd 47a9 cabd 2f9f 2fbe
00000380: 91f5 b5be 1b2a cfbe d178 3abe 38e6 13be
00000390: 891f 64bd b3b0 93bd 837e d2bd 7238 6cbe
000003a0: c069 d1be 7b99 0dbe fc4d b7be 979c babe
000003b0: 1b0b b9be f463 80bd 4f2a 61be 005a 5ebe
000003c0: 94d9 cdbe 7d19 28bd 8ccc 86be 596a 34be
000003d0: 15a6 e6bd cdbc 84be 52e9 42bd da04 90be
000003e0: 7c38 6dbd 393d 0ebe b61e 95be c22f bbbe
000003f0: db3e 1bc0 5d7d 15bf 1957 2b3f be8d 813f
-9.105468 -3.4107263 -4.767355 -4.892005 -2.9649253 -5.4422054 15.194794 1.9272674
-3.0962079 -10.812493 2.566684 2.660764 -1.5184722 5.654821 4.6486564 3.3362558
0.2908521 6.418056 2.4689617 0.092265815 4.0738297 0.058085255 0.96831614 -6.0304546
1.8006685 -0.5009302 -1.2494897 2.9523396 -2.8629532 0.08747751 3.2825391 4.122526
-2.942368 -1.6149979 4.842058 2.3578122 0.5052206 1.5440043 -0.7536276 0.5328911
-3.3914208 0.26911962 4.7158585 0.5894432 -6.6728606 -7.2895064 3.6674917 -15.6102495
1.8520926 -2.090181 -3.3299923 -1.2658168 -5.9063396 7.342025 -7.6079035 -1.9716029
2.345094 -2.410039 -0.17853948 -0.9853632 3.597174 -4.1172967 6.215041 1.2493775
-1.6025785 1.556131 1.031157 5.743475 -2.5484204 7.9767323 8.39873 3.4861932
-0.104250334 0.9806832 2.683745 0.9963803 6.0229645 0.90683687 1.1904376 -1.0213934
-2.9707716 4.644718 -5.480276 0.9396516 -3.9330783 -1.4559429 -4.2492356 -3.9933994
-2.963265 0.058262303 -3.4149785 0.83859533 -1.5395128 -5.627257 -0.96778536 5.1059947
-2.596343 -6.0979786 0.19826202 -2.3496692 0.44159374 -2.3633134 -14.574922 -3.6905086
5.285603 4.1028547 -0.5161626 0.5542067 1.3787056 -0.028855352 -2.7691092 3.1435323
-1.7649231 -3.3267972 1.075032 -0.49002224 -3.2010984 1.0749812 -0.32971624 0.37238708
5.3691764 -0.29926842 -1.2523817 -3.5869663 -3.4562511 -3.0837684 -10.952433 -4.5992045
-7.0455966 -7.522422 -3.6010406 -7.570861 1.1761857 -2.2143497 -2.8039868 -6.946194
-6.173358 -9.884963 -6.209671 0.51698464 -1.4910611 -4.386702 -0.49632472 -0.07834559
-4.454186 -4.1221766 -4.148942 -2.4097126 -2.554407 -0.42232648 -0.6098971 1.0708396
-0.15780747 4.6396036 -1.1805401 -1.22662 0.8576484 3.0601032 6.3162117 1.2910113
0.09307963 -0.015961422 3.722733 3.3208666 2.9217982 3.4289918 1.3308213 0.8169354
0.011117699 -0.038982086 -0.16565731 -0.09065339 -0.014651413 -0.053031858 0.11302131 -0.12954685
0.2914403 -0.08409037 -0.12594981 0.0032182366 -0.2376722 -0.24815966 0.06937327 -0.1422522
-0.033040788 0.03515741 -0.1082087 -0.08959505 -0.28599036 -0.09376197 -0.062391657 -0.1888751
0.1997885 -0.053798478 -0.21159582 -0.11768378 0.03227284 -0.124200195 -0.19422807 0.022844745
-0.28134748 -0.19189893 -0.38091645 0.051409274 -0.18087475 -0.37768006 -0.25739324 -0.3185116
-0.1294944 -0.12855655 -0.2977202 -0.06824704 -0.18985969 -0.09173635 -0.1339162 -0.15101565
-0.1656458 -0.14769155 -0.16882433 -0.09795178 -0.15483248 -0.042482663 -0.09895568 -0.17150567
-0.35538915 -0.4046181 -0.1821015 -0.1444329 -0.055694137 -0.07211437 -0.102780364 -0.23068407
-0.40900993 -0.1382808 -0.35801685 -0.36447594 -0.36141285 -0.062690645 -0.21988796 -0.2171402
-0.4020506 -0.041039933 -0.26327932 -0.17618693 -0.112621464 -0.25925294 -0.047585793 -0.281287
-0.057915196 -0.13890542 -0.29124993 -0.36559874 -2.4257114 -0.58394414 0.66929775 1.0121381

bias f4 [64]
00000000: 5a3b 7cc0 aaff be40 a539 05be b3ad 36c0
00000010: 908e 0a41 9f75 f440 dab1 f3be e74c 82bd
00000020: 45ab 033f 8fbe 2ebe 213d e73f e9b5 78c0
00000030: 49bc b3be 3d5e a4c0 6b58 61c0 d734 7bbf
00000040: 06db 42bf 04b6 aa3f 4098 1d41 b49d afc0
00000050: 0194 b0c0 3509 8540 4c42 b9c0 9ccf 73c0
00000060: 9818 c0bf 7899 2abe 9d82 adc0 abcb d8bf
00000070: 5667 1cc0 b66f 23bf 44c0 7140 55d6 223e
00000080: f6d0 62c0 31d6 17c0 ccdf 5ec0 5b86 6240
00000090: 20ba 8bbd a892 84c0 3125 36c0 85c8 37c0
000000a0: 3a34 0341 9400 67c0 e57b 1b40 f74e 48c0
000000b0: a4a1 c3bf 8b4d 2ebe 7392 d540 7a34 c63e
000000c0: caab 72c0 8cb7 e940 4c53 8340 cd27 2ec0
000000d0: 1632 1741 40af 8840 9050 3dc0 6cab 52c0
000000e0: abab 42c0 7e03 90c0 3a65 10be 30d1 0cbe
000000f0: 3dba 8ec0 b1b1 2840 f95e e4be e156 0bc0
-3.9411225 5.968709 -0.13010271 -2.8543518 8.659805 7.639358 -0.47596627 -0.06362324
0.5143321 -0.1706488 1.806553 -3.886103 -0.35104588 -5.1365037 -3.5210216 -0.981275
-0.76115453 1.3336797 9.84967 -5.488001 -5.518067 4.157374 -5.789343 -3.8095465
-1.5007505 -0.16660106 -5.422194 -1.6937155 -2.4438071 -0.6384233 3.77736 0.15902074
-3.544004 -2.3724482 -3.4824095 3.5394504 -0.0682261 -4.1429024 -2.84602 -2.8716137
8.200251 -3.6094103 2.429437 -3.1298196 -1.5283704 -0.17021768 6.674127 0.3871191
-3.7917352 7.3036556 4.103918 -2.7211792 9.449728 4.271393 -2.9580421 -3.2917128
-3.0417278 -4.5004263 -0.14101115 -0.13751674 -4.460234 2.6358454 -0.44603708 -2.1771777

weight f4 [32, 64]
00000000: 5f16 c0bf d598 50c1 fb34 f73d 98ea 52c0
00000010: 568a 183f 6083 2fc1 e09f c2c0 a452 95bc
00000020: 41d4 b9c0 f8a0 09bd df26 eabe d46d 1340
00000030: e5ef 3b3e 1886 bfbd 9f78 a4c0 5ed7 edc0
00000040: 4d87 09c1 3689 7a3f 271e 12c1 d218 e1c0
00000050: 956c b93f d724 b3c0 55c3 353f f757 c8be
00000060: 6b20 e3c0 5858 d4bd d0bc dac0 dfa1 46bf
00000070: 0d27 4ec0 792b 7f3e 97d8 53c1 9314 7040
00000080: 2639 24c0 5602 d140 e265 02c0 06c0 333f
00000090: 0a44 77bd 6860 6ec0 5172 99bf ea39 0abf
000000a0: 9f87 1dc1 f6be d1bf f8d6 1dc1 c2b9 5e3e
000000b0: 5339 a0bf 2985 ec3c dad6 b6bf a635 1c40
000000c0: 8d9d b1c0 1b74 43c1 315f 88c1 2f8f 13c1
000000d0: a835 93c1 8c32 a440 ada9 19c0 0ff3 19c0
000000e0: dbce 2c3f 1731 00c1 30ed 47be abcc 2abd
000000f0: 4a8f e13e 7c8b a340 663b 89be a281 6f3d
00000100: 1295 6e40 9dc8 9ac1 0028 413c 759a 79c0
00000110: cfc4 113f 5cb3 6cc1 13dc 0dc1 0b57 0b3e
00000120: ceb6 81c1 0b4a 4d3b 0b7a 6440 a64e a040
00000130: 8613 903e a29e 2040 6e42 ce3e 0801 24c1
00000140: 0a45 76c1 19e1 47be cef4 b6c1 afcd 333f
00000150: 1ba6 1ec0 64d4 3d40 321d 94bf 551e 90c0
00000160: d2f9 a3c1 e6e7 52bd ed3d e5c0 7a85 573f
00000170: 8de6 12c0 fc64 0cbe a1ce d4c1 bfdc 8740
00000180: d94a 0a41 6820 53c1 117c 9abf 601d ae3e
00000190: 7d6e 15bd b1cd cfbf 2074 9e40 0401 c7bf
000001a0: 6bc9 9ac1 be99 08bf ca96 7ec1 5e0e 293e
000001b0: 7b23 0341 7c3e 28be 7d26 18c1 469b fbc1
000001c0: f623 fabf bf84 9ec1 8770 e9c1 0bcb 8ec1
000001d0: a747 24c2 554c 0cbf 31da 2dbf e00b 2c3d
000001e0: 8927 f340 2c9c 63c1 c0cc 183d c614 42be
000001f0: 65f1 d2c0 0244 23bf 7ca4 8cbd d4a0 9440
00000200: b4e2 ec3f 234a 4bc1 acae 533c bbd8 2140
00000210: 3dd4 87c1 bb1f e1c1 d147 3ec1 53fb a53d
00000220: 1f36 27c0 3b4c 243c 9473 23c1 1f53 473f
00000230: 54d9 0f3e e780 acc0 6a34 8440 3389 aac1
00000240: c658 e1c1 44f1 b9c0 964e 91c0 bf7f f73f
00000250: eb09 8740 d7a1 8d3f 6d7c 45bf d659 7040
00000260: 9857 8840 1431 303e ef0a 4d40 2071 42c0
00000270: aa71 4ec1 8318 573e 8ab2 bcc1 1fe6 69c0
00000280: 5078 8940 9627 1dc1 58ef 4740 770a 58c1
00000290: 1678 ee3d 9fbb b440 15f1 9e40 7668 3040
000002a0: d3ff 37c1 bdf4 3b40 a259 61c1 f4b2 8340
000002b0: 8a07 8040 885c c8bd 5bb2 d5c0 fc42 9dc1
000002c0: 8af9 063f c856 81c1 289e c3c1 b715 c3c0
000002d0: 1e02 c2c1 f8e5 a2c0 7fd2 6140 7a87 7140
000002e0: bbd3 0940 e67e 9dc1 cd37 b6bd bf68 163d
000002f0: 0dfb 6e40 8fc4 30c1 c645 173d b484 3c40
00000300: 67a1 17c1 7c19 b1c0 e4cc 403e d4bc 6a40
00000310: a7a8 b0c0 c0f9 abc1 1e81 91c0 fba5 873d
00000320: f534 68c1 f7ba 8f3d 5b03 f2bf 0b66 2840
00000330: 5c76 bc3b b64b 4bc1 d8c2 9040 0c7d 99c1
00000340: 0259 8ac1 7c4d 81c1 2bc0 89c0 ad9d 44c1
00000350: b75a 99be ced4 63c1 812c 9a3f 38e2 aa40
00000360: e608 50c1 bf5e 9e3c 8f2f 5f40 2ac2 9dc1
00000370: 3aba 4fc1 6261 ce3d 42d2 8dc1 157b bec1
00000380: 5ad4 cbbf 80aa 70c0 081a 6640 2426 0bc1
00000390: 790b f5bc 3efa 6340 bb45 d0bf 69a1 3240
000003a0: 1b55 c9c0 ea27 9740 e440 e1c0 0d1c 99bd
000003b0: a614 3440 8494 c7bb 8ebb 35bf 7bf1 3cc1
000003c0: 45d7 b13f 8953 e4c0 c918 94c1 a32c 72c0
000003d0: 2d37 a6c1 6183 9abf 3e13 4240 573c 6640
000003e0: 994c 77c0 31a4 92c1 9735 84bd a595 8cbd
000003f0: f80d 1d40 b139 92c0 0e9c 123d 1058 dfbf
-1.5006827 -13.0373125 0.12070652 -3.2955685 0.59586084 -10.969574 -6.082016 -0.018227883
-5.80716 -0.033600777 -0.4573278 2.3035784 0.18353231 -0.09351748 -5.1397243 -7.43254
-8.595532 0.9786562 -9.132361 -7.03428 1.4486262 -5.598247 0.7100118 -0.39129612
-7.0977073 -0.10368413 -6.8355484 -0.77590746 -3.2211335 0.24918927 -13.240378 3.7512558
-2.565988 6.531535 -2.0374684 0.7021488 -0.06036762 -3.7246342 -1.1988012 -0.5399462
-9.845611 -1.6386402 -9.864983 0.21750548 -1.2517494 0.02887209 -1.4284317 2.4407744
-5.5504823 -12.215846 -17.04648 -9.222457 -18.4012 5.1311703 -2.4009812 -2.4054601
0.67503136 -8.011985 -0.19524074 -0.041699093 0.44054633 5.110777 -0.2680313 0.058473237
3.7278485 -19.347956 0.011789322 -3.9000523 0.5694093 -14.793789 -8.866229 0.13607423
-16.21426 0.003132465 3.569949 5.0096006 0.28139895 2.5096822 0.40285057 -10.250252
-15.391855 -0.19519462 -22.869534 0.70235723 -2.4788883 2.9660883 -1.157141 -4.5037026
-20.496983 -0.051490687 -7.1638093 0.84188044 -2.2953217 -0.13710397 -26.600893 4.2456965
8.643273 -13.195412 -1.2069112 0.34006786 -0.036482323 -1.6234647 4.9516754 -1.5547185
-19.348349 -0.5335959 -15.911814 0.16509387 8.196162 -0.16430086 -9.509397 -31.450817
-1.9542224 -19.814817 -29.179945 -17.849142 -41.069973 -0.54803973 -0.6791106 0.042003512
7.598576 -14.225628 0.03730464 -0.18953237 -6.591967 -0.63775647 -0.068673104 4.6446323
1.8506684 -12.7056 0.012920063 2.5288532 -16.978632 -28.140493 -11.892533 0.08104577
-2.6126783 0.01002794 -10.215717 0.7786121 0.14047748 -5.390735 4.131398 -21.316992
-28.168346 -5.8107014 -4.540843 1.933586 4.2199607 1.1065015 -0.77142984 3.7554832
4.2606926 0.17206222 3.2037923 -3.0381546 -12.90275 0.21005444 -23.587177 -3.6546705
4.2959366 -9.822165 3.1239834 -13.502555 0.11643998 5.647903 4.966929 2.7563758
-11.499957 2.9368126 -14.084383 4.115595 4.0009203 -0.09783274 -6.678022 -19.657707
0.52724516 -16.167374 -24.452225 -6.0964007 -24.251034 -5.0905724 3.5284727 3.7738938
2.153548 -19.686962 -0.08897362 0.036720987 3.734073 -11.047988 0.036931776 2.9455996
-9.476905 -5.534361 0.1882816 3.6677752 -5.5205874 -21.496948 -4.5470114 0.06623455
-14.512929 0.070180826 -1.8907274 2.6312282 0.005751414 -12.705984 4.5237846 -19.186058
-17.29346 -16.162834 -4.304708 -12.288495 -0.29952022 -14.239454 1.2044832 5.3401146
-13.002172 0.019332288 3.4872777 -19.719807 -12.982965 0.10077168 -17.727665 -23.810099
-1.592418 -3.7604065 3.5953388 -8.696812 -0.029912697 3.5621486 -1.627128 2.7911017
-6.291639 4.7236223 -7.039171 -0.074760534 2.8137603 -0.0060907025 -0.7098931 -11.808955
1.389382 -7.135197 -18.512102 -3.7839744 -20.776941 -1.2071344 3.0324244 3.5974329
-3.8640501 -18.330172 -0.06455534 -0.0686448 2.4539776 -4.5695424 0.035793357 -1.744875

bias f4 [32]
00000000: 9401 b241 e2b0 0642 922a ce41 01c0 7441
00000010: f5f3 4642 6742 e841 ec47 5d41 feb8 3f40
00000020: dd94 1941 4102 3042 a886 2942 d3c2 e541
00000030: 0925 8a41 70e4 a8c1 45f1 fc41 ca61 f941
00000040: 8c58 8641 b5ae cd41 aaa3 d141 e7ae ee41
00000050: af7a d841 573f 8a41 ee54 aa41 e836 7341
00000060: 6cdc 0642 1a04 a641 d9ac 1840 aada 3b41
00000070: 3ce7 7041 a33e 3641 0615 1342 bbf5 9d41
22.25077 33.672737 25.770786 15.296876 49.73824 29.032423 13.830059 2.995666
9.598844 44.0022 42.3815 28.720129 17.268084 -21.111542 31.617807 31.172749
16.793236 25.710306 26.204914 29.835402 27.059904 17.280928 21.29147 15.200905
33.715256 20.752003 2.3855498 11.740885 15.056454 11.390292 36.77053 19.744986

weight f4 [7, 32]
00000000: 355e 5fbe fe34 2f3e d07e c13e 948a 12c0
00000010: 84c0 0840 e4d4 153f a606 f03f 7ed7 263f
00000020: c6aa af3f e1ac e13f d66e a03e 52ca 03be
00000030: 5b80 66c0 611d 7ac0 be86 1f40 aa8c 1cbf
00000040: 1edd 6fc0 e73e 6b3e debd e8be 510d 4a3e
00000050: 27b1 343f 63b0 7c3f 7a23 5cbf bda4 17bf
00000060: eab9 5fbf 696c 643f 1d2f 2b40 2f7e 233f
00000070: 4c2a 823e 5f52 0fbf 442a 8c3f 09a1 ca3f
00000080: 947a 653e 4756 883e 5527 8d3f 9a74 06c0
00000090: 55db f03f f9d3 023e 3cf4 3b40 cdde 2a3f
000000a0: 863c c53f df23 ca3f 2a6c 35be c135 b0bf
000000b0: 0cad 8fc0 42b2 d1bf ddea 3340 c6d6 533d
000000c0: 8254 23bf d219 063f 9853 d33e 2b01 993f
000000d0: a05a f83e 077a 0fc0 df3a 6fbf e281 fdbe
000000e0: ba3e 23be 5fbe 1a40 e0b3 3240 0711 2d3f
000000f0: 04e6 323f 3632 11bf 06fc e73e 3b33 50bf
00000100: 59d2 ad3e 1b31 363d 6033 73bf a063 dfbf
00000110: 0f45 9a3f 868a a83e 9d40 7d40 3aec 1d3f
00000120: 6c22 a43f c204 bcbf 944d 0b40 bd6a 2bbf
00000130: b99b 00c0 99a9 03c0 28ef 2140 91f4 ff3d
00000140: bfb6 36bf ee28 813e bf95 243f 9ca9 f23f
00000150: 0313 a33e a6d6 883f 5186 503f a43b 983e
00000160: e42a e5bf 43a2 be3e 6238 2940 de61 b13e
00000170: 7bb9 2540 7c8b 29c0 26fc b43f 0720 0c40
00000180: 05a8 8b3c 8546 99be 7dd2 083f 3fc7 cbbc
00000190: 996e 4040 1b36 c0be af7d d53f 1243 343f
000001a0: 08d2 953f f4c5 df3f f108 683f f895 5fbe
000001b0: 442f 8dc0 cbb8 07c0 e5c7 4440 54fb 86be
000001c0: 23a2 cfbf b6af 933e 718a a3bf 954a c03f
000001d0: eaec f6be 612a 2040 b54c 86c0 02f7 41bd
000001e0: bc10 79bf 71bf e83f 0bcd 2d40 e513 c93e
000001f0: 6675 5640 8f27 31bf fe15 ca3f 7562 50bf
00000200: b85a d0bf ab2f 2bc0 7f09 2ac0 bd60 ab3f
00000210: 8d3f 9b40 92df 8ec0 a0ee 1bc0 1ddc 793f
00000220: b283 c03f 7010 8ac0 2d98 53c0 a6e3 60c0
00000230: e273 12c0 ec34 97c0 3ada 0c40 bf16 88bf
00000240: 1442 bac0 00d5 43c0 dd6f 24c0 424d 233f
00000250: 6361 243f f3dd b040 2a38 4740 44e7 773e
00000260: 97bd 2540 1fd4 813f 04bf 6140 69da 8e3f
00000270: 749c c23f f092 1cc1 eb89 923f 651f 95c0
00000280: ba6b 5f3f e86c a6c0 c409 17c1 00a4 49c1
00000290: f997 7540 3e15 40c0 6454 5bc1 79cb 403f
000002a0: e4b5 a83f acb5 78c1 a50b acc0 7fa8 d7c0
000002b0: 1f5f 10c1 5d70 b4c0 94a9 2740 7505 bec0
000002c0: 5401 7bc1 0704 55c1 fdcd 48c1 a068 66c1
000002d0: 8cbb b5c1 618f 95c1 f43d 86c1 6bbc c73e
000002e0: 7363 dc3e fc26 6bc1 77a6 3b40 a8cd 123f
000002f0: 9814 7dc1 e6af 1dc1 1586 0340 7809 71c1
00000300: 689f 41c1 f0dc fac0 4caa de3f 7330 1bc0
00000310: fbcf 60c1 a742 44c1 9cc6 0bc1 f84a b93f
00000320: 661d 3d40 4c3a 87c1 04a6 32c1 8940 44c1
00000330: 0ffe 09c0 e08d 4bc0 5f79 a23f 9909 34c1
00000340: 2306 f0c0 8009 a2c0 a9d9 56c1 1c23 70c1
00000350: 76c2 1cc1 1f86 04c1 d07d a3c0 9efc dcc0
00000360: 6829 69c1 7a2b 68c1 f21a 4c40 69ad e83f
00000370: 0986 f8c0 1f59 683f b0bc 85c0 76ce 26c1
-0.21813281 0.17110059 0.37792063 -2.2897081 2.1367502 0.5852797 1.8752029 0.65172565
1.3723991 1.7630883 0.3133456 -0.12870148 -3.6015842 -3.9080431 2.492599 -0.61152136
-3.747871 0.22973214 -0.45457357 0.19731642 0.70582813 0.98706645 -0.8599163 -0.59235746
-0.8739306 0.8922792 2.6747506 0.63864416 0.25422895 -0.55985063 1.0950398 1.5830394
0.22410041 0.26628324 1.1027628 -2.1008668 1.8816935 0.12776174 2.936782 0.66746217
1.5409095 1.5792197 -0.17717043 -1.3766404 -4.489874 -1.6382525 2.81121 0.051718496
-0.63800824 0.5238315 0.41274714 1.1953481 0.4850664 -2.241823 -0.93449205 -0.49513155
-0.15941897 2.4178693 2.7922287 0.67604107 0.69882226 -0.5671724 0.45309466 -0.8132817
0.33949545 0.044480424 -0.9500027 -1.7452278 1.2052325 0.32918185 3.9570687 0.6168858
1.2823005 -1.4688952 2.17661 -0.66959745 -2.0095046 -2.0572264 2.530222 0.12497819
-0.713726 0.2522654 0.64290994 1.8958011 0.31850442 1.0690506 0.8145495 0.29733002
-1.7903714 0.3723317 2.6440663 0.3464498 2.5894458 -2.6491385 1.413945 2.1894548
0.017047891 -0.29936615 0.5344618 -0.024875281 3.0067503 -0.3754128 1.667898 0.7041484
1.1704721 1.7482285 0.90638644 -0.21834552 -4.4120197 -2.1206539 3.0747006 -0.26363623
-1.6221355 0.28844994 -1.2776624 1.5022761 -0.48227626 2.5025866 -4.1968637 -0.047354706
-0.9729116 1.8183423 2.7156398 0.3927299 3.3509154 -0.69200987 1.5787961 -0.81400234
-1.6277685 -2.6747844 -2.6568296 1.3388897 4.8515077 -4.4647913 -2.4364395 0.9760149
1.504019 -4.3145065 -3.306163 -3.5138946 -2.288323 -4.72521 2.2008195 -1.0631942
-5.820566 -3.0598755 -2.5693276 0.6378976 0.642111 5.5270934 3.112803 0.24209315
2.5896966 1.0142859 3.5272837 1.1160403 1.5203996 -9.785873 1.1448339 -4.6600823
0.8727375 -5.200794 -9.439884 -12.602539 3.8374007 -3.0012965 -13.708103 0.75310475
1.3180509 -15.5443535 -5.3764215 -6.7393184 -9.023223 -5.638716 2.6197252 -5.938166
-15.687824 -13.313483 -12.55029 -14.400543 -22.716576 -18.69501 -16.78025 0.3901094
0.43044624 -14.697018 2.9320352 0.57345057 -15.817528 -9.855444 2.0550587 -15.064812
-12.101418 -7.83947 1.739572 -2.424832 -14.0507765 -12.266273 -8.735989 1.4476004
2.9549193 -16.903465 -11.165531 -12.265756 -2.1561315 -3.1805344 1.269329 -11.252343
-7.500749 -5.0636597 -13.42814 -15.008572 -9.797476 -8.282744 -5.109108 -6.905837
-14.572609 -14.510614 3.1891446 1.817792 -7.7663617 0.9076099 -4.179283 -10.4254055

bias f4 [7]
00000000: 2a45 2c42 1514 0e42 b593 0142 8cc7 0642
00000010: 8c22 0e40 c394 a6c0 1da5 1bc2
43.067543 35.51961 32.394245 33.69487 2.2208586 -5.2056594 -38.911243
