strat_v8.pt (torch, 25871 bytes, 4 tensors)

weight f4 [64, 84]
000000 7e 27 9b c0 0c 62 c8 c0 b2 f7 dd 40 02 10 ae 41
       -4.848571 -6.2619686 6.9364862 21.757816
000010 23 08 b1 bf 2d c4 ae 40 53 44 0f 41 27 4f 89 c0
       -1.3830608 5.4614472 8.954181 -4.290912
000020 3c d1 1f c1 c4 e2 5e c1 7c ea db 40 ed be df 3f
       -9.988583 -13.930363 6.8723736 1.7480141
000030 00 fc 4a c1 64 93 ae 3f 72 03 0d 40 d7 b8 b5 c0
       -12.686523 1.363873 2.2033353 -5.6788135
000040 5d f7 79 40 d8 c9 47 40 3b 86 b0 c0 d8 9a 59 bf
       3.9057229 3.1216946 -5.5163856 -0.850019
000050 10 82 8d c0 eb 8a 3c be 77 70 d6 c0 04 5d 25 c1
       -4.422127 -0.18412368 -6.7012286 -10.335209
000060 e5 1e d4 c0 1a 65 22 c0 a7 a4 83 c1 2c 73 b2 c0
       -6.6287713 -2.5374207 -16.455397 -5.576559
000070 94 16 91 3f ec 11 e0 c0 bf f4 ff bf aa ac c2 c0
       1.1335015 -7.0021877 -1.9996566 -6.083577
000080 af 07 03 c1 d7 3c 0e 40 46 cc a8 40 57 56 05 c1
       -8.189376 2.2224634 5.2749357 -8.333579
000090 c4 e2 b5 c0 b7 de ce c0 6b ff ec c0 40 f6 db 3e
       -5.6839314 -6.464687 -7.406179 0.4296131
0000a0 5c ff 1f c0 16 39 47 3f 8f 2c 2a c1 c2 86 cb c0
       -2.499961 0.7782148 -10.635879 -6.3602
0000b0 37 a7 ed 40 25 73 09 41 f1 18 63 c0 ba 26 03 41
       7.426662 8.590611 -3.5483973 8.196955
0000c0 49 01 6d bf 4d 11 2f c1 fa 5f f1 bf 83 c4 df 3f
       -0.92580086 -10.941724 -1.8857415 1.7481846
0000d0 11 e4 81 40 3e d3 1a c0 95 3c 09 3f 5b 6d f2 40
       4.05909 -2.4191432 0.53608066 7.575849
0000e0 5d 63 3e 3f 04 bc 43 bf 67 92 6f c0 26 8e 51 bf
       0.74370366 -0.76458764 -3.7433107 -0.81857526
0000f0 35 87 98 3f ee 52 bb bf a6 ce 96 40 3c 44 e3 c0
       1.1916262 -1.4634683 4.7127256 -7.1020794
000100 0f d7 22 c1 f3 be c4 c0 17 bb 19 c1 27 b1 6f c0
       -10.177505 -6.148309 -9.608176 -3.7451875
000110 40 9c 2a c1 84 2d 94 c0 f8 00 37 c0 11 2f f0 c0
       -10.663147 -4.630556 -2.8594341 -7.5057454
000120 ef 19 5a be 34 76 ee c0 f6 5b 0a 40 d2 c1 49 c1
       -0.21298955 -7.451929 2.1618629 -12.609819
000130 01 26 0c c0 09 0b 5d c0 ea c4 93 c0 ca 04 62 c0
       -2.1898196 -3.4537985 -4.6177874 -3.5315423
000140 e2 ca dc c0 27 03 6c c0 50 13 a0 c0 b6 58 a3 c0
       -6.899766 -3.6876924 -5.0023575 -5.104579
000150 4f fe 1b 42 59 26 15 40 68 d4 a4 41 dc 37 62 c0
       38.99835 2.3304656 20.603714 -3.5346594
000160 a8 9d e9 41 d8 dc 36 bf 00 c9 22 41 86 c1 28 41
       29.20198 -0.7143073 10.174072 10.547247
000170 c7 40 eb c0 26 fa 54 c0 c0 e1 72 c1 2c 76 38 c1
       -7.3516574 -3.3277678 -15.180115 -11.528851
000180 e6 03 17 c1 c9 bb 90 bf 8b c8 b0 bd ab e6 9c c1
       -9.438452 -1.1307307 -0.086320005 -19.61263
000190 93 e9 49 40 74 92 0b c2 96 6e f7 3f f3 4e ab c0
       3.1548812 -34.89302 1.9330623 -5.3533874
0001a0 d3 dd 1b 40 6a 77 ec 40 ec 26 55 c1 e8 76 44 c1
       2.435414 7.389577 -13.322002 -12.27903
0001b0 f2 68 b4 c1 25 d2 0d c1 3d 47 94 3f d4 2a 6a 40
       -22.551243 -8.863805 1.158424 3.658864
0001c0 b7 5c a7 40 a4 d8 a7 c1 a6 ca c1 c0 af 57 36 c0
       5.2300677 -20.980782 -6.0559874 -2.8491018
0001d0 a6 e9 cb c0 eb 53 a5 40 05 7e 6a c0 19 f7 92 bf
       -6.3722715 5.166494 -3.6639416 -1.1481658
0001e0 52 14 d6 c0 f1 54 c7 c0 df 84 38 c1 c9 cd 61 40
       -6.6899805 -6.229119 -11.532439 3.5281851
0001f0 2a 26 3c c0 08 af fb c0 d6 c7 14 42 76 1a 00 be
       -2.9398293 -7.865116 37.195152 -0.12510094
000200 93 3c a9 41 7c 2a 39 c1 ef 43 ae 41 ee 75 74 c1
       21.154577 -11.572872 21.78317 -15.278791
000210 a7 26 a0 41 1a ee 7e 40 b8 94 e5 bf 86 13 03 c0
       20.018873 3.9832826 -1.793601 -2.0480666
000220 6b c1 48 3f 67 dc d6 bf b5 cd 5b 41 d9 ca bc 3f
       0.7842013 -1.6786011 13.737721 1.4749404
000230 5f ef 05 40 ce bd 0f c0 f3 e0 06 40 eb 27 3b 40
       2.092735 -2.2459598 2.1074798 2.9243114
000240 53 33 1c 41 f4 cc 55 41 3d 14 04 41 9e ea 4f bf
       9.76253 13.362537 8.254941 -0.8121737
000250 74 0a 4f 3f 9f 0e ac c0 db 71 4f 41 ff 45 a1 c0
       0.80875325 -5.376785 12.965297 -5.0397944
000260 4d 34 1c c0 4f 2a 87 40 79 c6 ca bf b5 07 6e c0
       -2.4406922 4.2239146 -1.5841819 -3.7192204
000270 47 b2 23 c1 76 ea 67 41 49 c4 53 c0 95 30 f5 3f
       -10.231025 14.494741 -3.3088553 1.9155451
000280 90 1e ac 3f d2 eb 0f 41 7d 9d fb bf 53 0d 75 c1
       1.3446827 8.995073 -1.9657437 -15.315753
000290 4b 6b 88 bf 55 4c 02 40 60 00 21 c0 4f 36 0e c1
       -1.0657743 2.035909 -2.515648 -8.888259
0002a0 65 11 09 42 75 04 81 c1 de 97 0e c1 02 ba b4 bf
       34.266987 -16.127176 -8.912077 -1.4119265
0002b0 22 f5 8f c0 99 48 36 41 a0 fb 2e c2 32 f7 07 3e
       -4.4986734 11.392724 -43.745728 0.13277891
0002c0 c5 eb 55 41 2c d7 e9 40 ad 01 ff bf 04 56 22 40
       13.370061 7.307516 -1.9922386 2.5365
0002d0 8f 87 10 41 37 7f 28 41 a7 38 09 41 32 bc 10 41
       9.033095 10.531058 8.576331 9.045946
0002e0 80 c2 ed 40 dc 7d d9 40 97 61 9c 40 c5 86 1f 40
       7.4299927 6.7966137 4.886913 2.4926007
0002f0 fc bb 6b bf 33 40 00 3f b9 88 ff c0 d0 66 76 40
       -0.92083716 0.5009796 -7.98544 3.8500252
000300 45 9d 15 41 ac 9e e2 40 ec cb e6 40 23 a5 f5 40
       9.350896 7.081869 7.212393 7.6764083
000310 04 e3 18 41 c7 48 cd 40 6b 2d 19 41 2d 7f 12 3e
       9.555424 6.415134 9.573588 0.14306326
000320 31 2b f3 40 b2 ab f3 40 17 4b 02 41 2e af 0a 3f
       7.5990224 7.614709 8.1433325 0.54173553
000330 34 cb dc c0 ed c0 dc 40 42 ba 65 41 5d d3 6b 40
       -6.899805 6.8985505 14.357973 3.6847756
000340 39 f9 3f 40 f7 95 61 40 ab dd 5d 42 56 cf ce c0
       2.9995863 3.5247781 55.466473 -6.4628096
000350 3a 61 90 c1 3b 67 c5 c1 9c 90 93 c1 df d7 5e 41
       -18.047474 -24.675406 -18.44561 13.927703
000360 79 19 67 c1 eb f6 b5 41 51 ec 05 40 99 b0 ce 3f
       -14.443719 22.745565 2.0925486 1.6147643
000370 89 ed bf c0 9e a7 ae 3f 4b 8b e0 3f a3 ed e9 c0
       -5.997746 1.3644903 1.7542509 -7.3102584
000380 cd d5 af 40 fd 56 40 c0 e7 02 99 bf d5 bc 8b c0
       5.4948487 -3.0053093 -1.1954011 -4.366801
000390 0a 31 ce c0 dc 59 08 3f 0e 40 11 c1 52 e4 d4 40
       -6.443486 0.53262115 -9.078138 6.652871
0003a0 72 2d fc c0 87 bc f1 c0 e9 b7 3a c1 e8 96 15 c1
       -7.8805475 -7.5542636 -11.6699 -9.349342
0003b0 55 86 60 c0 e9 a9 45 c1 11 24 6a 40 02 03 1d c1
       -3.508199 -12.353982 3.6584513 -9.813234
0003c0 a9 c2 45 c0 cb db 88 bf 7b 6e 53 c0 8e 4a 9c c0
       -3.090006 -1.0692075 -3.3036182 -4.884101
0003d0 2d 31 fd bf 5f ca 50 40 c2 69 a0 c0 ba 9f 24 bf
       -1.9780632 3.2623518 -5.01291 -0.64306223
0003e0 1d 21 08 3f a6 e2 39 c1 6d 8d 74 c0 61 4a 09 3c
       0.53175527 -11.617834 -3.821132 0.00837955
0003f0 f1 2a 46 c0 df 4f 03 c1 34 18 02 41 b7 0b a5 40
       -3.096371 -8.207 8.130909 5.15768

bias f4 [64]
000000 43 7e 8a c1 4a ff 06 c1 74 7f 27 40 35 14 a7 c1
       -17.311651 -8.437326 2.6171541 -20.884867
000010 64 83 0d c1 01 39 89 c1 31 a7 21 c1 7b 24 39 c2
       -8.844578 -17.152834 -10.103318 -46.285625
000020 63 1a 83 c1 cb c3 5f c1 43 c8 d1 c1 37 aa b6 c1
       -16.387884 -13.985301 -26.222784 -22.833113
000030 5e 1d 65 c1 2a d3 bb c1 89 ab e1 c0 68 dd 9f c0
       -14.31967 -23.478107 -7.0521894 -4.995777
000040 ac e8 08 c1 cf fb 9e be c1 5d 58 c1 c6 38 47 c2
       -8.556805 -0.3105149 -13.522889 -49.805443
000050 48 c0 90 c1 ac 12 96 c1 19 2f 47 bf b4 98 01 c1
       -18.093887 -18.759117 -0.7780624 -8.099781
000060 52 d3 1e c1 be f0 9c c1 29 0d b6 c0 87 d1 9a c1
       -9.926592 -19.61755 -5.6891065 -19.352308
000070 4c 06 05 c1 50 7f aa c1 a8 3b 34 c1 06 79 4f c1
       -8.314037 -21.312164 -11.2645645 -12.967047
000080 51 e5 13 c1 d1 c8 8e c1 d1 5d d7 c0 7d 6f 71 c1
       -9.243485 -17.848055 -6.730202 -15.089719
000090 21 59 2d c1 f8 39 e5 be 3d 44 9c c1 f6 42 65 c1
       -10.83426 -0.4477079 -19.53332 -14.328848
0000a0 c9 38 09 c1 7b 6f a0 bd 7f 3c 71 c1 f8 c3 ce c0
       -8.576364 -0.07833763 -15.07727 -6.461422
0000b0 2b 55 65 c1 b8 aa 81 c1 b5 f9 5c c1 75 78 54 c1
       -14.333293 -16.208359 -13.810964 -13.279408
0000c0 6f b6 57 3f bb 8d 9c c1 7c 5a 1d c1 f5 31 9f c0
       0.84262747 -19.569204 -9.834591 -4.9748483
0000d0 ce ed 3c c1 6a 18 a6 c1 31 08 ba c1 bf bc 32 41
       -11.808058 -20.76192 -23.254 11.171081
0000e0 32 97 9e c1 0a 97 19 40 93 28 e0 c0 84 d0 e9 c0
       -19.823826 2.3998437 -7.004953 -7.3067036
0000f0 66 ae 61 c2 df 06 f7 c0 53 69 a2 c1 83 8e 50 c1
       -56.42031 -7.7195888 -20.301428 -13.034793

weight f4 [7, 64]
000000 1e a6 b5 41 32 d4 c4 c0 fd a1 46 40 af d4 48 c1
       22.706112 -6.1509027 3.103637 -12.551925
000010 e7 0c 0c 41 33 72 76 c1 00 72 20 41 ee 26 83 c1
       8.75315 -15.402881 10.027832 -16.394009
000020 04 a6 3d c1 7e 5f 0f 41 d1 3d 67 c1 15 4b 46 c1
       -11.853031 8.9608135 -14.452592 -12.393331
000030 43 fb 5f c1 85 67 83 c1 21 b5 dc 40 e1 16 4d bf
       -13.998843 -16.425547 6.8971105 -0.80113035
000040 85 40 5b 41 e8 4c 59 bd 0c 28 71 c1 47 3a 39 c1
       13.703252 -0.05305186 -15.072277 -11.576728
000050 f6 b0 3d c1 19 e3 8a 40 00 21 28 bf 09 50 74 3f
       -11.855703 4.340222 -0.65675354 0.95434624
000060 41 75 a6 40 27 a7 25 be 3c 56 ab c0 2c fe ca 3f
       5.201813 -0.16177045 -5.3542767 1.5858817
000070 0f 8b a4 41 07 7c d4 be 26 32 cb 40 60 05 89 41
       20.5679 -0.41500875 6.3498716 17.127625
000080 33 83 ca 41 42 3d a6 c1 38 6c 02 40 91 65 f2 c0
       25.314062 -20.779911 2.0378551 -7.5748982
000090 4b 2c 55 41 a0 b1 83 3d 3c 38 91 40 b8 71 9e 41
       13.323314 0.06430364 4.5381145 19.805527
0000a0 ce 53 a2 41 56 60 22 bd 7d c0 db c0 ec b2 2b c1
       20.29092 -0.039642654 -6.867247 -10.731182
0000b0 af a9 3f c0 8c 98 d6 c0 9f a2 d1 40 5a 77 d2 c0
       -2.9947317 -6.7061214 6.551101 -6.5770693
0000c0 f3 87 47 3f 8c 6c 53 c1 19 04 3a 41 57 c2 07 41
       0.7794182 -13.214001 11.626 8.484946
0000d0 d2 eb 6d 41 e5 3e 22 41 b5 ec 41 c1 5c e9 31 40
       14.870073 10.140355 -12.12029 2.7798681
0000e0 2e b9 b7 40 38 1d 85 c0 eb 9c bc 3f 30 c4 92 bd
       5.741355 -4.1598167 1.4735388 -0.07166326
0000f0 37 66 f5 c0 2e 47 87 40 ed 02 b7 40 43 ba 4a 40
       -7.6687274 4.227439 5.719107 3.1676185
000100 0c a0 0a 41 03 11 94 bf 14 2b 3e 40 1a cb 2a c1
       8.664074 -1.1567692 2.9713793 -10.674585
000110 0c b0 22 41 20 84 0c c1 d5 e9 ed 40 5f c1 3b 3f
       10.16798 -8.782257 7.434794 0.73341936
000120 9e 83 0a 41 7c e1 ac 40 2c a2 cc c1 77 8f c3 c0
       8.657133 5.402525 -25.579185 -6.111263
000130 fc 45 fb c0 d1 3f 89 c0 d5 6e 01 3f 38 9f 25 c1
       -7.852293 -4.28904 0.5055974 -10.351372
000140 96 e6 b6 3f 97 4c ad 3b 6d e3 e3 3f 7d 09 11 c1
       1.4289119 0.0052886712 1.780378 -9.064816
000150 dc 99 29 c1 cb c0 89 40 33 14 0a 3e 22 e6 82 40
       -10.600063 4.3047843 0.13484268 4.0905924
000160 d8 38 7f 41 39 e0 23 40 f5 04 0d c0 7b 8d b1 40
       15.951378 2.5605605 -2.2034276 5.5485206
000170 bc d4 5c 41 1b eb 1a c1 07 44 b5 40 24 57 4b 41
       13.801937 -9.682399 5.664554 12.708775
000180 c8 e9 69 41 c3 fe f1 3f c2 d4 7a 40 9a 3d d9 c0
       14.6195755 1.8905872 3.9192357 -6.7887697
000190 1d 82 35 41 7d 53 c8 ba ef ad 91 40 b5 b8 30 41
       11.344266 -0.001528367 4.552482 11.0450945
0001a0 f8 b1 6d 41 83 85 27 3d fd bd 04 41 8c d7 12 41
       14.855949 0.04089881 8.296384 9.177624
0001b0 41 29 a2 bf c7 e5 a0 c1 2a 35 b9 40 f1 bf a1 3f
       -1.266884 -20.112196 5.7877398 1.2636701
0001c0 13 fb 8e c0 d7 9c 8d 3f a9 d5 2d 41 fa 94 1e 41
       -4.4681487 1.1063489 10.864663 9.911371
0001d0 0f 57 13 40 d1 16 7a 41 8e 36 94 c1 8f 83 43 40
       2.3021886 15.63057 -18.526638 3.0549047
0001e0 00 b0 03 41 0b 1c 3e c0 d2 e8 8a 3f f5 cd c9 40
       8.230469 -2.9704616 1.0852301 6.3063912
0001f0 c7 0c de c0 95 53 a9 40 15 9a 4f c0 ad 6b 9f 40
       -6.9390597 5.291453 -3.2437794 4.981894
000200 34 5d 22 41 43 37 08 c0 43 9d 82 40 17 c8 08 c1
       10.147755 -2.128373 4.081697 -8.54885
000210 f8 22 4c 41 e3 de 93 41 81 29 3c 41 f9 fc 79 c1
       12.758537 18.483831 11.760133 -15.624261
000220 9f 94 96 c0 5b cb 2c 41 b9 b0 4d c1 66 e9 e0 c0
       -4.705642 10.799647 -12.855645 -7.028491
000230 9e 00 38 c1 cc 04 d3 c0 1b 5f 17 41 a6 f2 9f 40
       -11.500151 -6.5943356 9.460719 4.99837
000240 5e 57 96 40 ce 61 a0 3d 2c 14 1f bf 06 58 52 c1
       4.698165 0.07831155 -0.62140155 -13.14649
000250 83 13 5f c1 a5 c3 5a c1 ab 89 3e be bf e3 14 41
       -13.942264 -13.672765 -0.18607204 9.305602
000260 6b 1c 88 40 a3 71 68 c1 a1 80 b2 c0 47 0c d8 c0
       4.253469 -14.527743 -5.578202 -6.7514987
000270 f1 8f 82 41 8d 64 8e 40 65 ab 9c c0 75 bf 50 41
       16.320284 4.4497743 -4.895922 13.046742
000280 9d 8c d4 be b7 49 a1 c1 0e de 02 3f 36 a6 f4 c0
       -0.4151353 -20.160994 0.5112008 -7.6452894
000290 c9 99 89 41 06 a7 d2 3c 54 44 ca 40 b5 72 2a 41
       17.20009 0.025714409 6.320841 10.653005
0002a0 d7 12 a2 41 92 6c b1 3d 21 ee 65 41 dd 02 8e 40
       20.2592 0.08663286 14.370637 4.4378495
0002b0 19 21 06 c1 5a d4 2c c1 89 24 d8 40 32 d1 14 c1
       -8.3830805 -10.801844 6.75446 -9.301073
0002c0 fb c4 ee c0 a8 09 ab c1 1b cf 9e 40 8d 5f 2f 41
       -7.4615455 -21.379715 4.9627814 10.960828
0002d0 2f 22 fd 3e df ef 32 41 2c e9 9e 40 ab cf c6 c0
       0.49440143 11.183562 4.9659634 -6.21285
0002e0 1c 15 ca 40 e1 5d 7a c0 b3 60 77 3f 01 96 b1 c0
       6.315077 -3.91198 0.96631926 -5.549561
0002f0 3c d6 cd be b3 ce 2c 41 45 09 9f c0 59 2a 4c 40
       -0.4020251 10.800464 -4.9698815 3.1900847
000300 89 73 aa c1 b4 81 eb 3f f3 35 23 40 11 4d 10 c1
       -21.306414 1.8398957 2.5501678 -9.018815
000310 37 62 df 40 a2 34 14 41 e6 4c 0e 3f 6c 1e c3 c1
       6.980739 9.26285 0.5558609 -24.389854
000320 c7 90 2a 41 ea 1f cc 3f 0a b5 1f 41 89 74 ea c0
       10.660346 1.5947239 9.981699 -7.3267255
000330 05 84 e8 c0 b9 1d 1d 41 1e dd e4 40 24 dd 76 bf
       -7.2661157 9.8197565 7.151992 -0.96431184
000340 44 00 aa 3f e9 72 9d 3d 19 7e 39 40 e7 44 f9 c0
       1.3281331 0.07687933 2.8983214 -7.789661
000350 94 0c 5b c1 91 a5 7b 40 f5 07 47 3e 02 28 c6 c0
       -13.690571 3.9319804 0.19436629 -6.192384
000360 6e 58 92 40 85 b2 e5 c0 74 b0 74 c0 b9 be 61 40
       4.5732946 -7.178042 -3.8232698 3.5272658
000370 53 d0 5a 41 3e 13 14 41 1c 2b c3 40 34 1a 8c 41
       13.67586 9.254698 6.0990124 17.512794
000380 3b 72 e4 40 d9 4e 85 c1 28 24 15 be 7f 11 ce 40
       7.138944 -16.6635 -0.14564574 6.4396358
000390 b6 58 d0 3f b3 f9 0b 3c 9c 74 da c1 8c 60 72 40
       1.6277072 0.00854342 -27.306938 3.7871428
0003a0 44 d3 18 41 59 51 d7 3d 7c 9c 62 c1 37 78 46 3f
       9.5515785 0.10513563 -14.163204 0.77527183
0003b0 2a 03 29 40 45 f2 50 c1 4b 59 52 41 5f 44 ad c0
       2.640818 -13.059148 13.1468 -5.414596
0003c0 13 fc 4e 3f ce 29 7b c1 8c b6 17 41 ee d7 3f 41
       0.80853385 -15.697706 9.482067 11.990217
0003d0 1b dd 8c 41 09 fe f8 c0 69 4f 30 c1 70 42 88 40
       17.607962 -7.78101 -11.019387 4.25811
0003e0 fb bd 56 c1 56 34 50 c0 b4 35 73 3f 4f 1d b3 3e
       -13.421382 -3.2531943 0.9500382 0.34983298
0003f0 d6 aa a9 c0 a5 58 6d 41 9f ee 90 c0 28 6d 7f 40
       -5.302104 14.834142 -4.5291286 3.9910374

bias f4 [7]
000000 2c 69 2c 41 d7 f1 20 41 07 19 df 41 d9 49 84 41
       10.775677 10.059043 27.88722 16.536058
000010 48 f7 ba 41 b4 d1 07 41 79 52 c9 40
       23.370743 8.488697 6.2913175
