strat_v3.pt (torch, 25871 bytes, 4 tensors)

weight f4 [64, 84]
000000 ea 8d 3f 40 bd 57 f7 bf 12 57 f0 c0 2d 68 72 c0
       2.9930367 -1.9323651 -7.5106287 -3.7876084
000010 0b 30 78 40 02 9c 71 c0 96 48 6a c0 17 19 00 c1
       3.8779323 -3.775147 -3.6606803 -8.006125
000020 ae d7 06 41 39 ef 2f c0 fc 56 34 c1 02 ec eb 3e
       8.427656 -2.748976 -11.271236 0.46078497
000030 a5 21 72 3d 08 28 83 c0 68 c1 cd c0 c1 fa 0d 40
       0.059114117 -4.0986366 -6.429859 2.2184298
000040 f7 bc ba c0 f9 f6 0b c0 b8 5b 3a c0 fb 8d 99 be
       -5.835567 -2.186949 -2.911848 -0.29991135
000050 2c 85 57 c0 d6 79 36 c1 8f f4 bc 40 a8 8e e5 be
       -3.3675032 -11.404745 5.9048533 -0.448354
000060 96 12 4b c1 42 ff 9d c0 c7 be 2d 40 58 a0 25 c0
       -12.692038 -4.9374094 2.7147691 -2.5879116
000070 80 e0 a9 bf 9f fd 15 40 51 36 37 bd 27 b8 fd c0
       -1.3271637 2.3436048 -0.044729535 -7.9287295
000080 1f 9c 9d c0 f1 ec 9b bf 0c bd a2 c0 db c9 ca c0
       -4.9253078 -1.2181684 -5.085577 -6.3371406
000090 e0 a1 87 c0 ad 9b d8 c0 b9 5b 84 c0 ea a6 3e c0
       -4.23851 -6.7690034 -4.1361966 -2.9789376
0000a0 5f 14 3f c0 c5 c9 c5 c0 d7 b9 a6 c0 20 42 af 40
       -2.9856184 -6.18088 -5.2101855 5.476822
0000b0 0e 9a 86 c0 38 cf 85 3e 62 01 8d c0 dc a0 8c c0
       -4.2063055 0.26134658 -4.406419 -4.394636
0000c0 07 91 2a c0 35 f6 db c0 d0 b3 93 3f c0 4c ac 40
       -2.6651018 -6.8738046 1.153925 5.384369
0000d0 3c 7c 6b c0 ef 5a 56 c0 33 03 4a 3f 88 57 0b 40
       -3.6794577 -3.3493001 0.7891113 2.1772175
0000e0 ee 33 35 c1 a6 a5 ae c0 df 8b 1c 40 ab 75 ef c0
       -11.325178 -5.4577208 2.446037 -7.483114
0000f0 11 22 e3 c0 44 47 ed 3f 60 af 08 bf e6 20 ce be
       -7.0979085 1.8537374 -0.533926 -0.40259475
000100 eb 7f f5 3e db 6e 1d c0 8a ec c7 c0 f4 e4 92 c0
       0.47949156 -2.459891 -6.2476244 -4.5904484
000110 fe a5 8b 40 c1 10 20 40 60 af 72 c0 ea ea 06 c1
       4.3640127 2.5010226 -3.791954 -8.432352
000120 a0 8b 15 bf ee b8 65 c0 bc 43 55 c0 f0 58 6b 3f
       -0.58416176 -3.5894122 -3.3322592 0.9193258
000130 2a 4f 03 c1 98 0f d3 bf f4 98 9a c0 00 aa c7 bf
       -8.206827 -1.6489134 -4.831171 -1.5598755
000140 eb f5 3f bd 83 be 06 bf ec 73 be c0 cc 3d 69 c0
       -0.046865385 -0.5263445 -5.9516506 -3.6443968
000150 5f 75 03 41 4a ed f4 c0 82 ce e1 c0 a9 d5 8f 40
       8.216155 -7.653966 -7.0564585 4.4948316
000160 d1 ce 13 c1 e7 71 a9 40 81 e3 c2 c0 2d 0e b1 3e
       -9.237992 5.295154 -6.0902715 0.34581128
000170 54 d1 8a c0 c6 86 8a 40 81 ef d1 c0 63 d9 72 c0
       -4.3380527 4.328952 -6.5604863 -3.7945182
000180 74 b7 a8 40 29 b9 71 40 fb 21 5a c0 b2 39 17 c0
       5.272394 3.7769263 -3.408324 -2.3628964
000190 0a 45 16 c1 ac e8 d2 bf a2 67 bc c0 60 7c 45 bf
       -9.391855 -1.6477256 -5.8876505 -0.77142906
0001a0 56 49 a9 c0 43 58 4a c1 ea 5a 47 c0 df 7d 1a c0
       -5.290202 -12.646548 -3.114924 -2.4139326
0001b0 82 c3 2c c0 eb e4 d5 c0 92 bd ae bd 99 b0 7d c0
       -2.6994328 -6.684194 -0.085322514 -3.9639037
0001c0 0b 7e 14 bf 32 a5 8c bf 64 47 d9 c0 80 9c 6c c0
       -0.58004826 -1.0987914 -6.7899647 -3.697052
0001d0 fd 50 c2 c0 a1 98 05 c1 ce 36 f2 c0 14 6e fa bf
       -6.0723863 -8.349763 -7.56919 -1.9564843
0001e0 cd 9a 01 c1 c6 af 20 c1 7d 48 d4 c0 12 9d 68 c0
       -8.100293 -10.042913 -6.6338487 -3.6345868
0001f0 50 25 99 c0 b4 73 d0 3f 8b 3c 24 41 cb fa 21 c0
       -4.7858047 1.628531 10.264781 -2.5309322
000200 88 d9 d6 c0 46 07 3f c1 8e 73 88 c0 3d 9b 1a c1
       -6.714054 -11.939276 -4.264106 -9.6629
000210 d6 6c e9 c0 1a 5b 17 c1 9b cf f9 c0 57 3b e6 c0
       -7.2945356 -9.459742 -7.8065925 -7.1947436
000220 b6 7a 94 3c aa 6a 13 c1 5e 25 cc c0 34 e2 f2 c0
       0.01812492 -9.213541 -6.3795614 -7.5901127
000230 90 e1 ac bf 36 f0 19 c1 34 0d 8b bd bb 9b 9c 3e
       -1.3506336 -9.621145 -0.06789628 0.30587563
000240 12 c1 be c0 f6 ad 78 c1 af af ba bf 9e 0b 68 bf
       -5.961068 -15.542471 -1.4584864 -0.90642726
000250 db 34 c2 c0 bb 42 79 c0 5c 50 b5 c0 27 b4 d4 bf
       -6.068952 -3.894698 -5.6660595 -1.6617478
000260 8f 09 e4 c0 88 d3 a3 c0 ec 71 c4 c0 bb 80 f3 be
       -7.126167 -5.1195717 -6.1389065 -0.4755915
000270 5e ee 05 c1 3f e8 e7 bf d5 33 0f c1 88 f7 08 c1
       -8.370695 -1.8117751 -8.950154 -8.560432
000280 64 3d 94 bf 50 7c e1 3e 0d cf 6b bd 10 f9 20 c0
       -1.1581235 0.44040155 -0.057570506 -2.5152016
000290 cd a5 2b bf 3e 0b 11 c1 81 23 87 c0 53 5d 30 3d
       -0.67049867 -9.065245 -4.223084 0.04305775
0002a0 22 c4 ad 40 38 c9 4e c0 72 1d 46 c1 61 f7 02 c0
       5.430192 -3.2310314 -12.382189 -2.0463488
0002b0 18 a0 50 c1 b2 38 ef c0 2f 20 42 c1 b6 f4 dc bf
       -13.039085 -7.475671 -12.132857 -1.726218
0002c0 4c 08 0d c0 4c de 8a 40 c8 c2 6f c0 51 43 c7 c0
       -2.2036314 4.339636 -3.7462635 -6.2269673
0002d0 29 e1 06 3f 1c 35 08 bf 9b 44 3c c0 fc b7 e0 c0
       0.5268732 -0.5320604 -2.9416873 -7.022459
0002e0 4b fe 90 3f ba 41 ff c0 37 ae 11 c0 e4 61 81 40
       1.1327604 -7.9767733 -2.2762582 4.0431995
0002f0 0a 0f 68 c0 a3 29 3a c1 ad 32 01 c1 f5 e2 14 c1
       -3.625918 -11.635165 -8.074872 -9.305409
000300 44 b9 d9 3f 79 9a 75 c0 aa 57 5a c1 d6 07 37 c1
       1.7009664 -3.8375533 -13.646402 -11.439413
000310 46 df 3f c1 c0 b6 0f c1 35 65 86 c0 18 61 93 c0
       -11.99201 -8.982117 -4.1998544 -4.6056023
000320 fd 2f ea bf b0 12 f6 c0 cf d2 93 c1 14 2b 5b bf
       -1.8295895 -7.689781 -18.477934 -0.85612607
000330 09 8d a3 c1 e8 40 21 c1 b7 85 46 c0 b8 8c fa be
       -20.443865 -10.078346 -3.1019113 -0.48935485
000340 96 03 7a c0 8c c6 61 c1 30 a4 8d c0 64 1e 47 bf
       -3.9064689 -14.110973 -4.4262924 -0.7778075
000350 b6 0d 4e c1 7b 43 d0 c0 a0 3a 32 c1 fd cf 91 3f
       -12.878347 -6.5082374 -11.139313 1.1391598
000360 d3 2e dc c0 e7 5c 1a c1 ae a7 21 c1 2a a3 ca c0
       -6.880716 -9.647681 -10.103437 -6.3324175
000370 fc d6 2d c0 b3 c2 cb c0 2e 8d a8 3f 74 df 60 c1
       -2.7162466 -6.367517 1.3168085 -14.054554
000380 df 1b 1b c1 04 d5 90 c0 e6 90 1b c1 02 ad 65 c0
       -9.694304 -4.526003 -9.722876 -3.5886846
000390 d5 f8 56 c1 e3 94 42 c1 6f 2b dd c0 06 a0 90 c1
       -13.43575 -12.161349 -6.911552 -18.078136
0003a0 05 4f 26 c1 e6 62 0f 3e 20 77 2e c1 65 a6 e6 c0
       -10.394292 0.1400257 -10.904083 -7.207812
0003b0 7c 1b 1a 41 20 5d 7a c0 fa 55 c3 c0 3c 4d a0 be
       9.63171 -3.911934 -6.104245 -0.31308925
0003c0 7c c5 39 c0 65 1c 1f 3f e7 60 a2 c1 ca 8d 23 c0
       -2.9026785 0.621527 -20.297316 -2.555529
0003d0 6d 79 81 c1 23 04 09 c1 47 9b 07 3e 5b 37 d4 c0
       -16.18429 -8.56351 0.13242827 -6.6317573
0003e0 dc 8f 9c c0 3c 86 a9 c0 67 66 b6 c1 79 3c d9 c0
       -4.892561 -5.297636 -22.800001 -6.788632
0003f0 33 34 82 40 1a 27 6e c0 cd ff 86 c1 d5 09 86 c0
       4.068872 -3.7211366 -16.874903 -4.1887

bias f4 [64]
000000 6a 42 1c c1 4f 01 06 c0 b8 e7 ee c0 34 50 ba c0
       -9.766214 -2.0938299 -7.465786 -5.8222904
000010 4c 18 80 bf 94 6b d4 be b0 f9 24 c1 aa 1d 16 bf
       -1.0007415 -0.41488326 -10.310959 -0.58639014
000020 60 b8 0e bf 82 70 00 bd 20 d8 31 bd d7 01 09 c1
       -0.55750084 -0.031357296 -0.043419003 -8.562949
000030 ea 88 ec bf 46 73 9e c0 f6 3d 36 c1 bf 12 0e c1
       -1.8479283 -4.9515715 -11.390127 -8.879577
000040 32 bb 74 c0 5c 7b 72 c1 91 07 2e c0 73 8e 72 c0
       -3.8239255 -15.155117 -2.7192118 -3.7899444
000050 7f 1a 53 c0 cd 17 9a bf 4a fc 6b c1 86 e0 23 c1
       -3.2984922 -1.2038513 -14.749094 -10.242315
000060 5f b8 b6 bf 9f 4e 02 c1 f5 8d b3 bc 31 5a 55 c0
       -1.4275016 -8.144195 -0.021918276 -3.3336298
000070 3f 3a f8 c0 f4 6d 05 c0 5b ca b7 c0 02 43 f7 be
       -7.75711 -2.084836 -5.7434516 -0.4829331
000080 4f 1b ad c0 7f 93 65 c1 0c a7 0e c0 35 7d 4f c0
       -5.4095836 -14.34851 -2.2289457 -3.242017
000090 97 59 d4 bc 5a 82 cd 40 6e 6f 10 c1 96 04 5c c1
       -0.025921626 6.422162 -9.0272045 -13.75112
0000a0 f2 31 e7 bf 06 4c e1 c0 c5 e0 cf c0 9a d1 a1 bc
       -1.8062117 -7.04053 -6.4961877 -0.019753266
0000b0 5d 2b b7 c0 10 df 96 bf 83 f2 d5 bd 5f 8a 7b c0
       -5.7240434 -1.1786823 -0.10446646 -3.9303205
0000c0 79 fa 21 c0 a2 c7 c5 be 3a 1e 8f c1 23 5a 31 c1
       -2.5309126 -0.3862887 -17.88976 -11.084506
0000d0 65 ee ad be 65 ee d8 c0 dc 98 b5 be 78 e8 41 c1
       -0.33970943 -6.779101 -0.35468185 -12.119255
0000e0 52 be f8 c0 5f 33 26 c1 dd e5 65 c0 69 22 1a c1
       -7.7732325 -10.387542 -3.5921547 -9.633401
0000f0 9d 7f df c0 85 12 12 c1 97 2b 3e c0 d2 1d 40 c0
       -6.984328 -9.129521 -2.9714105 -3.00182

weight f4 [7, 64]
000000 fe 19 5d 41 47 2a 29 41 24 73 0e 41 3b fd c8 40
       13.818846 10.572822 8.9031105 6.280912
000010 64 b5 28 40 46 e3 8f be cf 13 7e 41 b8 c2 1d 40
       2.6360712 -0.28103083 15.879836 2.4650097
000020 ad 8d 83 be 4a 85 fa 3c d5 52 a7 3f f8 59 89 3e
       -0.25694028 0.030581135 1.3072153 0.26826453
000030 34 97 b3 bf 19 83 a3 40 3c a7 18 c1 c3 48 4e c1
       -1.4030519 5.109753 -9.540829 -12.892764
000040 6a 3a e4 40 ce ff 10 c1 9c b9 4c 41 82 4b 5f 40
       7.1321306 -9.062452 12.795315 3.4889836
000050 4c e6 b1 40 c3 cf 70 40 d7 a8 dd 40 2b bc 8b 41
       5.5593624 3.7626808 6.9268603 17.466879
000060 c4 3f 86 c0 c0 cd 1d c1 49 44 5b 3f 6c eb b2 40
       -4.195284 -9.862732 0.8565107 5.591238
000070 44 90 94 41 c7 61 0c 41 c5 a8 ab 3f e8 dc b3 bd
       18.570442 8.773871 1.3410879 -0.08782369
000080 6e ad ce 40 1d a7 69 41 73 0f c0 3f a2 d4 97 40
       6.4586706 14.603299 1.5004715 4.744706
000090 dd f8 3a 41 4a cb 27 c0 62 e8 7f 41 27 d2 83 41
       11.685758 -2.6217828 15.994234 16.477613
0000a0 b4 f9 80 c0 ab df ee 3f d2 4a f3 40 25 2a 4c c0
       -4.0304813 1.8662008 7.6028833 -3.1900723
0000b0 a4 bb 5a 40 e1 a5 0d 3e cd 01 e0 bd 66 f4 c8 40
       3.4177027 0.13832809 -0.109378435 6.279834
0000c0 6f 85 f1 40 0e e8 c5 3e 0c bb 2d 41 79 3b f0 c0
       7.5475383 0.38653606 10.858166 -7.50726
0000d0 7b d3 4c bf 1e b7 69 40 90 5e 2b 40 bd db 8c 40
       -0.80010194 3.6518016 2.6776466 4.4018235
0000e0 6e 14 91 41 d1 41 4a 41 fb 81 ba c0 90 eb 8b 3f
       18.134975 12.641068 -5.8283668 1.0931263
0000f0 d6 93 2e 40 f1 7a da 40 92 28 b0 40 04 33 41 c1
       2.7277732 6.8275075 5.5049524 -12.074955
000100 de 03 0c c1 57 11 4f 41 0d 7c cc 3f b2 42 e6 bf
       -8.750944 12.941733 1.5975357 -1.7989104
000110 cd eb 5f 3f 82 10 b3 3d 64 24 6b c1 8e 58 39 41
       0.8746918 0.08743383 -14.696384 11.58412
000120 d7 4a bf 3e 91 e5 83 3c ff 93 a8 3f b8 a5 9c 40
       0.37361786 0.016100677 1.3170165 4.8952293
000130 a6 c0 db 3f e5 c7 31 3f 09 51 8e 41 d2 28 be c0
       1.7168167 0.6944564 17.789568 -5.942483
000140 bb ac 46 41 71 fd 4c 41 1a df 0e 41 db 25 1d 3f
       12.417171 12.811875 8.929468 0.6138589
000150 65 ab 2c 41 fd 8f 0e 41 da 1b 40 c1 2e 2d 54 41
       10.791844 8.910153 -12.0068 13.26103
000160 b4 c4 35 40 9a 61 d4 c0 0d fa 5d c0 09 31 01 41
       2.8401308 -6.6369143 -3.468387 8.074471
000170 b3 f6 17 41 9d d3 9a 40 d8 b4 11 41 de b8 2f 3d
       9.497729 4.8383317 9.106651 0.042900912
000180 23 af 80 41 41 af 1a 40 11 89 24 3d db 46 99 40
       16.085516 2.4169466 0.04016978 4.7898993
000190 7e df a8 40 fd 6a 28 c0 89 aa bf 41 2a d7 64 40
       5.2772818 -2.63153 23.95827 3.5756326
0001a0 b0 3d 05 bf 34 ec a0 be 8a 78 9c bf 75 c3 72 40
       -0.5204725 -0.3143021 -1.2224286 3.7931798
0001b0 bd 75 4c 41 14 70 97 3f 66 d6 8f bd 99 3d 83 40
       12.778745 1.1831079 -0.07023315 4.1012692
0001c0 0c af ec be 85 20 99 3e 0f 72 ad 40 de e6 00 c0
       -0.462273 0.29907623 5.420173 -2.014091
0001d0 e8 be 3d 40 b6 45 01 bf b2 15 32 40 ce 1e 9f 40
       2.964777 -0.50496995 2.7825742 4.9725103
0001e0 5f 7c 8a 41 f9 8f 89 c1 06 fc 32 41 02 ce df 3f
       17.310728 -17.1953 11.186529 1.7484744
0001f0 39 53 eb 3f 7d eb a9 41 6b 6c 69 c0 80 a2 71 3f
       1.8384773 21.239985 -3.6472423 0.9438858
000200 bc bf 2f 41 e0 11 66 40 17 54 6f 40 17 b1 40 41
       10.98431 3.594841 3.7395074 12.043235
000210 ee c8 4a 40 82 73 e4 b7 9e 00 a2 c0 b9 6f e2 3f
       3.1685138 -2.7233506e-05 -5.0625753 1.7690345
000220 19 d5 32 3e bb 05 12 3e 86 c6 09 41 38 b2 8c c1
       0.17464103 0.14259999 8.610968 -17.58702
000230 f3 d7 ef bd d3 df 12 41 51 df 6e c1 44 bd 0a c1
       -0.11711111 9.179645 -14.929521 -8.671207
000240 98 07 b6 3f a4 63 1d 40 23 2f a1 40 ac 6d ec 40
       1.4221067 2.4592066 5.037004 7.3883877
000250 cf c9 f5 3f de 0b 4a bf 8e 3b a8 41 89 e0 0d c0
       1.9202212 -0.7892436 21.02908 -2.2168295
000260 6e e2 fd 40 e0 38 ac c1 a2 40 f4 c0 63 91 fc 40
       7.9338903 -21.527771 -7.6328897 7.8927474
000270 e8 a1 62 41 1a 24 bf 40 58 39 b7 41 84 8c c3 3d
       14.164528 5.973157 22.903 0.095482856
000280 07 52 11 41 36 7a 12 c1 f3 6c 89 bf e9 61 ee c0
       9.082526 -9.154837 -1.0736374 -7.449452
000290 55 4d ed c0 ea 4d 28 c0 26 ec 90 41 a9 ce 80 41
       -7.41569 -2.6297555 18.115307 16.100908
0002a0 25 4f 0f 41 dc 84 cf 40 85 24 03 41 a7 e9 bd c0
       8.956822 6.484968 8.196416 -5.934772
0002b0 49 70 ff 3f 9b 7d 5e 41 d1 b6 e8 3d 77 7a 82 41
       1.9956142 13.905665 0.113629945 16.309797
0002c0 77 d5 4e 3f ff c7 b6 40 26 6c 7c 3f a4 a8 9b c0
       0.8079447 5.7119136 0.9860252 -4.864336
0002d0 88 e1 9c c0 0b c2 58 41 a6 76 19 41 e9 ea ab 3f
       -4.9025307 13.547374 9.591467 1.3431064
0002e0 38 a0 80 41 18 92 06 c1 4f 73 aa 40 7f a8 68 40
       16.078232 -8.410667 5.3265758 3.6352842
0002f0 c8 14 14 40 e1 3b 36 41 98 ae 10 41 78 4c 70 40
       2.3137684 11.389619 9.042625 3.7546673
000300 98 25 ec 40 86 de 9c 40 fd f6 83 41 9b 5f d0 3f
       7.379589 4.9021635 16.4956 1.6279176
000310 b0 1a d6 40 05 6a 40 3c 05 2e 16 c1 82 71 ea 40
       6.6907578 0.011744027 -9.386235 7.326356
000320 ca f9 59 bd 04 88 06 bd 1a 6a 01 41 a3 fd 10 c1
       -0.053216733 -0.03284456 8.088404 -9.061923
000330 a1 0d f5 3f 6e b6 7e 41 00 7a 9e c0 e3 a1 9d 3f
       1.9144784 15.9195385 -4.9523926 1.2315029
000340 13 c2 3d 41 66 f5 8c 40 d5 3c c8 c0 4f 6b 0c 41
       11.859881 4.404956 -6.257426 8.776198
000350 70 95 0a 41 94 3b 6e 40 35 7c 58 41 c8 91 d8 40
       8.661484 3.7223864 13.530324 6.7677956
000360 b9 bc 23 40 50 65 02 40 05 98 66 c0 e7 4c 22 41
       2.5583937 2.0374336 -3.6030285 10.143775
000370 8d c6 24 3d 7e e5 2b 41 78 be 1d 41 90 4c 9c 3e
       0.040228415 10.743528 9.859001 0.30527163
000380 9f f6 71 40 27 a6 d6 40 3a b4 24 40 70 db 62 41
       3.7806776 6.7077823 2.5735002 14.178574
000390 41 48 ec 3e f3 f5 46 c0 83 1b 55 41 15 23 5f 41
       0.46148875 -3.1087615 13.319217 13.946065
0003a0 ff 94 44 41 23 e0 ce 40 32 7d 39 40 53 7b 4d 41
       12.286376 6.4648604 2.8982663 12.842608
0003b0 2b be fd 40 0a 05 84 c0 9a 57 42 3d 3c ca 54 c0
       7.929464 -4.125615 0.047446825 -3.3248434
0003c0 a4 f0 14 41 9f 5c 35 40 f1 91 9c 41 87 1c 04 c1
       9.30875 2.8337781 19.57126 -8.256965
0003d0 2c 8d e2 c0 98 fd 0d bf ea 68 b6 be 49 c6 90 40
       -7.079733 -0.5546508 -0.35626918 4.5242047
0003e0 3a f8 1f 41 36 1d 05 c1 82 32 25 40 61 30 a9 c0
       9.998102 -8.319632 2.5812078 -5.2871556
0003f0 af 81 a4 3f d0 c8 6b 41 35 03 aa c0 65 14 b3 40
       1.2852076 14.7365265 -5.3128915 5.5962396

bias f4 [7]
000000 fe e6 6c 42 cf 47 84 42 9f 25 97 42 f7 bb a8 42
       59.22558 66.14025 75.57348 84.36712
000010 1c ca 93 42 46 5e 86 42 6c 16 82 42
       73.894745 67.18413 65.04379
