strat_v2.pt (torch, 25871 bytes, 4 tensors)

weight f4 [64, 84]
-0.7204953 -2.2262201 -1.6020322 -0.4770362 -1.201504 -5.5428624 -3.6633418 3.382494
-4.952356 -5.2589235 3.1573606 -1.7453743 7.509224 -6.0842423 -7.151049 -2.8874288
0.10294502 -6.291541 -7.901307 5.6884856 2.6873631 -1.9700265 -0.30502912 5.0935826
1.739122 -2.2595937 -1.4784837 0.081495754 -7.0153117 1.3816696 -4.332548 -4.141708
-4.407095 -0.01018421 -2.0893507 0.7512801 0.5766235 -0.85947037 -6.754096 -4.8536077
-3.3538883 -4.772963 1.5971416 -0.195744 -0.7467399 -4.4848247 -1.1259574 1.8670778
-0.7780825 -1.9842783 1.786053 -4.5365777 1.3343574 -4.815695 1.9009961 -4.7177534
-2.595769 -6.1613903 -6.431895 7.4962716 -3.6506066 -0.093336456 -6.1369767 2.4392915
-3.460614 -2.2698605 0.10791028 -2.80823 0.787407 -3.5977323 -4.860291 5.6087484
-1.618694 -2.220968 -2.1866922 -4.5589256 -5.4407296 1.593576 -1.8629031 -2.506805
-3.5090516 -3.7933316 -1.0383396 -6.202658 -4.721039 5.885838 9.283376 3.9412515
3.3170962 -0.63890576 -12.902138 -7.2107563 5.177894 -2.6242282 2.134202 0.80545944
5.768816 0.43800372 -5.0563784 -1.8518034 4.437294 1.4014316 -9.925984 4.0332203
-7.145269 1.8031294 -6.476416 -9.982544 4.2223344 -5.085781 -2.286439 1.6695558
2.233268 -4.6309443 -5.4102955 2.5341394 -9.933686 0.22912332 -0.32677355 -3.1799264
-11.223169 -1.1745543 1.0285754 -2.21133 0.7075883 -1.0090157 -2.3958325 1.0183865
5.957311 -3.3403466 -6.6272798 -2.5372105 3.4636114 -0.66132253 -4.436646 0.24568604
0.10386288 -7.459233 -10.549512 6.3446927 -6.9461346 -5.465224 -4.51938 -6.411142
-2.2129743 0.242165 -4.623928 -5.655416 0.5026339 0.43471044 -1.1184937 -1.5094781
2.6180532 -9.127601 -3.1962285 1.4829022 -1.2659862 1.4067737 -10.544516 -2.628768
-9.826377 -3.598645 0.2063598 1.2883081 1.8383161 -6.848279 1.5614862 1.8653984
9.073781 9.069283 0.07805591 0.22694719 -2.454598 -7.343193 -3.339259 3.3899958
2.9255211 -0.7495904 4.0985065 -5.0712028 -4.41785 -6.413293 -10.827146 -5.659146
-6.1110387 1.3624763 -2.626975 -1.671132 -1.3655039 -2.7952957 1.2245593 4.0052867
-3.9329422 -3.523486 -8.018152 -14.157554 -3.0421314 3.9898248 -11.753264 -0.52062756
-1.0298876 3.37026 -2.046197 -7.444521 -5.2452674 -5.133541 -3.8401682 -1.6212724
3.4501421 0.8231723 -3.6233244 0.056624312 -1.8867909 -4.9601727 -2.0373275 -8.745167
1.7472447 -9.405127 -3.64844 -12.763601 -7.1769824 3.0210404 0.6747341 -0.058679536
1.4606134 1.6749008 1.058043 -1.184301 0.062248554 -3.8149981 -0.074865654 -5.2921815
1.1299299 -10.506648 -2.253995 -5.4482303 7.2011185 -0.06810869 1.5199957 -1.6974039
-4.2941413 -3.4576874 -2.9818382 -4.876652 -5.8559213 -2.1090615 -7.3222427 -2.442813
-4.8264894 3.5109327 -2.4055917 -2.0901291 -0.07397493 -2.4924576 -3.6342046 3.6384068
00000000: 6172 38bf 647a 0ec0 640f cdbf 173e f4be
00000010: e2ca 99bf 215f b1c0 3174 6ac0 c87a 5840
00000020: b379 9ec0 1a49 a8c0 3212 4a40 6d68 dfbf
00000030: 904b f040 1db2 c2c0 65d5 e4c0 a2cb 38c0
00000040: d7d4 d23d 4e54 c9c0 82d7 fcc0 1308 b640
00000050: c2fd 2b40 d429 fcbf c72c 9cbe a1fe a240
00000060: 8d9b de3f 2f9d 10c0 f43e bdbf 3fe7 a63d
00000070: 6f7d e0c0 8dda b03f 3ca4 8ac0 df88 84c0
00000080: ec06 8dc0 acdb 26bc ecb7 05c0 e553 403f
00000090: 999d 133f 4006 5cbf 8e21 d8c0 c150 9bc0
000000a0: 1ba6 56c0 1dbc 98c0 236f cc3f 1d71 48be
000000b0: 592a 3fbf af83 8fc0 5f1f 90bf 68fc ee3f
000000c0: 6a30 47bf d5fc fdbf 629d e43f a52b 91c0
000000d0: 39cc aa3f 2c1a 9ac0 d753 f33f d6f7 96c0
000000e0: 1421 26c0 1c2a c5c0 15d2 cdc0 75e1 ef40
000000f0: 8aa3 69c0 2f27 bfbd 1d62 c4c0 5a1d 1c40
00000100: b37a 5dc0 6545 11c0 1100 dd3d 0aba 33c0
00000110: 8193 493f 3f41 66c0 8187 9bc0 de7a b340
00000120: 5d31 cfbf 5724 0ec0 c4f2 0bc0 b8e2 91c0
00000130: 751a aec0 4cfa cb3f 9c73 eebf 7e6f 20c0
00000140: 4d94 60c0 f2c5 72c0 50e8 84bf 2d7c c6c0
00000150: c012 97c0 c958 bc40 b588 1441 773d 7c40
00000160: 4e4b 5440 548f 23bf 286f 4ec1 84be e6c0
00000170: 4fb1 a540 5bf3 27c0 c496 0840 9732 4e3f
00000180: 249a b840 0642 e03e dacd a1c0 e507 edbf
00000190: 50fe 8d40 1c62 b33f d5d0 1ec1 2410 8140
000001a0: 0ba6 e4c0 f2cc e63f cd3e cfc0 80b8 1fc1
000001b0: 5d1d 8740 b8be a2c0 0455 12c0 01b4 d53f
000001c0: dded 0e40 b230 94c0 2421 adc0 572f 2240
000001d0: 61f0 1ec1 4e9f 6a3e dd4e a7be ea83 4bc0
000001e0: 1a92 33c1 cc57 96bf 5ca8 833f 6e86 0dc0
000001f0: 8224 353f 6d27 81bf 5255 19c0 7d5a 823f
00000200: 4ba2 be40 3dc8 55c0 ad12 d4c0 a861 22c0
00000210: cfab 5d40 6f4c 29bf 01f9 8dc0 1f95 7b3e
00000220: 10b6 d43d 09b2 eec0 cdca 28c1 b907 cb40
00000230: bc46 dec0 1de3 aec0 c39e 90c0 1328 cdc0
00000240: 5fa1 0dc0 1afa 773e 38f7 93c0 2bf9 b4c0
00000250: 9eac 003f 5e92 de3e cd2a 8fbf 9436 c1bf
00000260: 2f8e 2740 a70a 12c1 028f 4cc0 bdcf bd3f
00000270: d60b a2bf 2911 b43f 56b6 28c1 bc3d 28c0
00000280: d738 1dc1 3350 66c0 fc4f 533e 48e7 a43f
00000290: f14d eb3f 1a25 dbc0 c8de c73f 60c5 ee3f
000002a0: 352e 1141 c81b 1141 c7db 9f3d d864 683e
000002b0: 2218 1dc0 70fb eac0 6bb6 55c0 b1f5 5840
000002c0: bd3b 3b40 28e5 3fbf f726 8340 4b47 a2c0
000002d0: 075f 8dc0 b239 cdc0 fd3b 2dc1 b917 b5c0
000002e0: a18d c3c0 a065 ae3f 5c20 28c0 a7e7 d5bf
000002f0: d5c8 aebf 20e6 32c0 5cbe 9c3f 4f2b 8040
00000300: 53b5 7bc0 cb80 61c0 5a4a 00c1 5785 62c1
00000310: 48b2 42c0 4a59 7f40 5f0d 3cc1 d947 05bf
00000320: 5bd3 83bf 57b2 5740 e4f4 02c0 8439 eec0
00000330: 3bd9 a7c0 f845 a4c0 51c5 75c0 db85 cfbf
00000340: 21cf 5c40 6bbb 523f 8ce4 67c0 e5ee 673d
00000350: 5d82 f1bf bcb9 9ec0 9363 02c0 34ec 0bc1
00000360: b7a5 df3f 667b 16c1 0a80 69c0 b637 4cc1
00000370: d7a9 e5c0 ba58 4140 60bb 2c3f f459 70bd
00000380: 61f5 ba3f 2663 d63f f46d 873f 2d97 97bf
00000390: 57f8 7e3d ee28 74c0 2a53 99bd 8d59 a9c0
000003a0: 8ba1 903f 3b1b 28c1 7441 10c0 e757 aec0
000003b0: 906f e640 927c 8bbd 388f c23f 8844 d9bf
000003c0: 9b69 89c0 c04a 5dc0 70d6 3ec0 880d 9cc0
000003d0: b563 bbc0 ddfa 06c0 d04f eac0 0c57 1cc0
000003e0: 9a72 9ac0 1fb3 6040 37f5 19c0 adc4 05c0
000003f0: 2b80 97bd 6d84 1fc0 cf96 68c0 a8db 6840

bias f4 [64]
-4.61889 -0.30678925 -5.5506334 -5.5245132 -2.9187443 0.78071344 -6.3247538 0.99323756
2.0162137 -2.0951087 -5.5018797 -5.7637987 -7.0428166 -6.603332 -0.053064335 -2.031777
-7.7174525 -5.1304164 -4.96479 -6.1474924 -0.6255156 1.3735505 -2.817894 -5.7661443
-5.112776 -4.4079323 -4.0755343 1.7573172 -2.6879005 -0.15843466 -7.1930447 2.6716957
-0.36520797 -6.9370856 -2.1600628 -0.15520278 -4.6074224 -0.6017048 -6.405723 -0.14891608
-0.16651042 -0.107039176 -2.6976476 0.39087108 -4.2745495 1.5492307 -5.8049393 -4.6755996
0.6747342 -5.0692964 -3.555371 -0.2274295 -2.5296326 -1.3968037 -0.19326991 -0.0086653335
-0.89998215 -0.43260112 1.2138312 -3.5836098 0.12650178 -0.09199824 -7.0683036 -0.14798157
00000000: f2cd 93c0 7b13 9dbe ca9e b1c0 d0c8 b0c0
00000010: b5cc 3ac0 d6dc 473f 6264 cac0 d144 7e3f
00000020: a509 0140 4316 06c0 660f b0c0 0a71 b8c0
00000030: c15e e1c0 7f4e d3c0 fd59 59bd a208 02c0
00000040: 5ff5 f6c0 5f2c a4c0 8fdf 9ec0 42b8 c4c0
00000050: ca21 20bf 81d0 af3f 6058 34c0 4184 b8c0
00000060: dc9b a3c0 c80d 8dc0 c76a 82c0 c5ef e03f
00000070: 9006 2cc0 b23c 22be 6c2d e6c0 10fd 2a40
00000080: 8afc babe 9bfc ddc0 783e 0ac0 7aed 1ebe
00000090: 0170 93c0 5309 1abf affb ccc0 757d 18be
000000a0: b581 2abe 5b37 dbbd 42a6 2cc0 4120 c83e
000000b0: 1cc9 88c0 314d c63f 10c2 b9c0 839e 95c0
000000c0: 61bb 2c3f ad37 a2c0 338b 63c0 47e3 68be
000000d0: 80e5 21c0 77ca b2bf 8ce8 45be 0bf9 0dbc
000000e0: 3b65 66bf e57d ddbe d25e 9b3f dd59 65c0
000000f0: af89 013e 9369 bcbd 8b2f e2c0 7b88 17be

weight f4 [7, 64]
8.829826 7.010394 11.026293 5.4905148 -4.9246807 -1.487708 -6.875763 2.592087
-9.824584 8.135403 6.700082 10.094818 7.8148246 6.790477 -0.030977815 5.699771
-10.770014 -3.3954985 1.3582844 5.355479 9.512541 3.6088884 10.4958725 -2.6470025
5.256392 -2.3092625 1.5405201 9.017519 -10.941512 0.14541756 5.3118954 2.146767
-0.028925598 9.715638 5.044729 -0.085032105 -9.878975 -10.65962 0.7025405 -0.0727237
0.01520884 0.18917574 0.25693575 -9.528117 7.9759555 10.042676 9.302672 10.273828
-3.3245773 8.565198 2.8600643 -3.3683133 -6.255449 -4.092103 0.0068718456 9.267553
7.031084 -11.227821 -3.9698021 2.6263072 3.6204424 -0.005458528 7.728232 -0.002990671
4.688445 7.110925 3.0402863 9.68378 4.088694 4.2376213 -0.61686355 -5.296862
-2.504548 6.0516768 -7.4638724 3.597752 8.590801 -3.8688943 0.027072372 7.187956
-4.926993 -16.051395 -6.6793075 3.3738484 3.0838115 7.3522778 -5.834252 -12.630674
6.6875396 -8.179002 -16.52715 -1.1162269 -12.326867 1.980939 -5.7932773 4.352105
-0.31236562 10.1275215 1.2400905 0.03776717 -0.6561578 6.37013 6.7214603 -0.017651074
0.09499355 -0.04514588 -12.666056 7.236517 5.3289003 -1.0380356 -6.761952 -4.8399315
-3.4071317 -5.644182 6.8936453 -6.981587 -19.868315 2.6728199 -0.001636263 6.6164336
8.39866 16.630346 7.692504 5.8515987 15.393376 0.03363387 5.74258 -0.053383775
1.8943919 1.4231695 5.028179 5.513014 -6.816441 -5.2812185 8.058938 9.862222
-0.7521124 7.8960686 9.480642 2.3772295 5.823433 -5.6131935 -0.09277356 11.218032
5.571145 -8.399625 -11.571542 3.3180027 15.369565 -1.5162792 6.2260265 -10.9877405
0.6817572 -4.052949 -1.567131 5.950429 4.555634 9.386462 6.8125553 -1.4984561
-0.026864128 8.619284 2.5981734 0.1041376 -9.484801 10.220482 3.6988418 0.1064087
-0.0394861 -0.041075822 2.5203524 6.098676 -7.4983444 11.388184 5.033359 -5.0134425
-4.883497 6.2677016 6.3219028 4.3579187 7.8875747 1.8511469 0.093257226 13.596562
8.786714 -7.1087627 -4.6809688 -1.1537927 16.293573 -0.03282158 -0.6913564 0.049839932
4.6491356 7.1177545 13.152073 8.228697 5.4478307 4.2017956 9.922411 -15.139476
0.6298678 -3.042876 0.9659109 13.223654 11.271295 -3.2067058 0.035955258 3.431561
-9.983167 -5.2115235 -10.431524 3.852706 2.8292384 3.5660222 -5.503982 5.038197
7.3633723 -6.453058 11.675156 7.5397086 -8.083619 1.4015454 4.5660825 2.0719192
-0.026785312 14.253211 8.511845 0.014115324 -15.550991 -0.49744138 8.12939 0.018926784
0.01990538 0.032384317 -4.5120654 5.7552004 -7.297369 8.136785 -15.380411 -3.6670082
-3.3883097 1.2375517 2.9867723 -3.8325417 -2.5859303 -13.540254 0.04281267 10.576299
4.6271796 -9.469924 9.821421 12.30046 4.3365407 0.009920119 4.651361 0.10398187
00000000: f846 0d41 2655 e040 b26b 3041 4cb2 af40
00000010: fc96 9dc0 376d bebf 4006 dcc0 c1e4 2540
00000020: 7f31 1dc1 9c2a 0241 1267 d640 6084 2141
00000030: 0b13 fa40 964b d940 30c5 fdbc 8664 b640
00000040: fa51 2cc1 d94f 59c0 43dc ad3f 1560 ab40
00000050: 5e33 1841 07f8 6640 18ef 2741 7d68 29c0
00000060: 5d34 a840 f5ca 13c0 c32f c53f c247 1041
00000070: 6f10 2fc1 57e8 143e 0cfb a940 a164 0940
00000080: 60f5 ecbc 4173 1b41 6c6e a140 5025 aebd
00000090: 4810 1ec1 ce8d 2ac1 b2d9 333f 2af0 94bd
000000a0: 802e 793c 49b7 413e 158d 833e 2b73 18c1
000000b0: 073b ff40 cdae 2041 bfd7 1441 9961 2441
000000c0: e0c5 54c0 0d0b 0941 4b0b 3740 7292 57c0
000000d0: a32c c8c0 82f2 82c0 382d e13b e647 1441
000000e0: a4fe e040 28a5 33c1 3d11 7ec0 6b15 2840
000000f0: 54b5 6740 74dd b2bb ad4d f740 22ff 43bb
00000100: be07 9640 b38c e340 0d94 4240 c3f0 1a41
00000110: 95d6 8240 989a 8740 c5ea 1dbf e57f a9c0
00000120: 844a 20c0 56a7 c140 0bd8 eec0 9241 6640
00000130: ec73 0941 f79b 77c0 e1c6 dd3c bc03 e640
00000140: eda9 9dc0 4269 80c1 e3bc d5c0 22ed 5740
00000150: 2b5d 4540 dc45 eb40 31b2 bac0 3e17 4ac1
00000160: 5300 d640 31dd 02c1 9a37 84c1 86e0 8ebf
00000170: d93a 45c1 698f fd3f 8762 b9c0 7244 8b40
00000180: 63ee 9fbe 540a 2241 49bb 9e3f c0b1 1a3d
00000190: f5f9 27bf 1bd8 cb40 3416 d740 fc98 90bc
000001a0: fa8b c23d e3ea 38bd 2aa8 4ac1 8c91 e740
000001b0: 5a86 aa40 5ade 84bf e961 d8c0 b8e0 9ac0
000001c0: 720e 5ac0 249d b4c0 be98 dc40 2969 dfc0
000001d0: 4ff2 9ec1 7b0f 2b40 e077 d6ba d3b9 d340
000001e0: e960 0641 f30a 8541 fe28 f640 4c40 bb40
000001f0: 454b 7641 abc3 093d 37c3 b740 f2a8 5abd
00000200: 6f7b f23f 6b2a b63f d8e6 a040 9c6a b040
00000210: 4920 dac0 beff a8c0 69f1 0041 a9cb 1d41
00000220: 708a 40bf 98ac fc40 b6b0 1741 8724 1840
00000230: 9059 ba40 489f b3c0 1000 bebd 0f7d 3341
00000240: d246 b240 dd64 06c1 0925 39c1 285a 5440
00000250: bde9 7541 7015 c2bf 9c3b c740 c9cd 2fc1
00000260: a487 2e3f c2b1 81c0 c097 c8bf ea69 be40
00000270: c1c7 9140 f32e 1641 7400 da40 69cd bfbf
00000280: 2912 dcbc 96e8 0941 7948 2640 1846 d53d
00000290: bfc1 17c1 1887 2341 d3b9 6c40 ceec d93d
000002a0: 2dbc 21bd 1f3f 28bd 744d 2140 5b28 c340
000002b0: 70f2 efc0 0036 3641 4711 a140 1f6e a0c0
000002c0: 9c45 9cc0 0391 c840 074d ca40 1274 8b40
000002d0: 0367 fc40 62f2 ec3f a5fd be3d 858b 5941
000002e0: 6196 0c41 fc7a e3c0 7fca 95c0 7baf 93bf
000002f0: 3d59 8241 ec6f 06bd bcfc 30bf f524 4c3d
00000300: b8c5 9440 a5c4 e340 e46e 5241 bea8 0341
00000310: a154 ae40 1c75 8640 32c2 1e41 4b3b 72c1
00000320: 043f 213f 7bbe 42c0 f045 773f 1694 5341
00000330: 3957 3441 ab3a 4dc0 d245 133d b29e 5b40
00000340: 0dbb 1fc1 cdc4 a6c0 86e7 26c1 bc92 7640
00000350: 3e12 3540 b539 6440 9f20 b0c0 e938 a140
00000360: bfa0 eb40 737f cec0 70cd 3a41 4b45 f140
00000370: 8156 01c1 d765 b33f 591d 9240 539a 0440
00000380: df6c dbbc 270d 6441 8430 0841 f643 673c
00000390: dcd0 78c1 a3b0 febe fb11 0241 580c 9b3c
000003a0: 9c10 a33c 6ba5 043d d762 90c0 9a2a b840
000003b0: 0c84 e9c0 4530 0241 2a16 76c1 43b0 6ac0
000003c0: 11da 58c0 1868 9e3f 4727 3f40 5d48 75c0
000003d0: e27f 25c0 e1a4 58c1 575c 2f3d 8538 2941
000003e0: db11 9440 cf84 17c1 8a24 1d41 afce 4441
000003f0: f1c4 8a40 ff87 223c f3d7 9440 72f4 d43d

bias f4 [7]
-4.3581405 3.0174649 -9.308772 3.2839193 -8.3211355 2.4626615 6.556527
00000000: e375 8bc0 251e 4140 bbf0 14c1 bc2b 5240
00000010: 5f23 05c1 3f9c 1d40 12cf d140
