strat_v7.pt (torch, 25871 bytes, 4 tensors)

weight f4 [64, 84]
-11.183733 -4.8630095 -5.444955 -9.480579 2.008687 -3.6648295 -18.100937 -6.752051
-22.227434 3.8418322 -6.139189 -2.3246534 -8.39164 3.3724582 -6.997348 4.071155
0.2512083 -10.372033 1.461186 2.5749612 -10.036689 1.7932754 -13.012531 -4.6151543
1.4532744 -5.238346 -4.41496 -10.076487 2.3861346 -8.213357 2.504606 0.025085127
-2.362087 -3.3259637 -4.6024117 2.0084908 -18.980547 -7.9349427 -12.974677 -3.4732678
-7.4926996 -3.4924598 -7.8330927 1.0524383 -2.8100536 -3.9879138 -6.986898 -9.815517
-15.182205 5.615848 -10.079242 -22.5078 -7.214068 -2.2536392 5.844726 -8.283068
-0.87550616 -14.858705 -2.6246905 -5.332426 -3.1605847 -16.680489 5.647349 -0.16317105
-7.330896 -4.304989 -2.5969384 -4.161891 -6.5456986 -0.5333809 -5.964332 -2.987124
-12.199684 -7.088436 -3.3458107 -8.364755 -1.4436746 -11.9866085 -6.055735 0.42917815
-0.77224547 0.5348049 3.1347961 -10.8136 34.71275 4.2002835 2.5066235 -5.612257
-2.9368165 10.733021 -3.9815474 -2.707779 0.96486664 -10.957763 -4.6177807 -16.006807
-6.0340657 1.7314429 -10.385282 -14.647297 -20.66324 -4.6913533 -9.055992 -7.101265
-1.2029282 -3.8218966 -2.7760777 3.9154649 -2.298328 -8.589864 -7.2372284 -5.562717
-2.733856 -4.0459437 -1.237912 -10.7043 1.5804914 3.0782194 -6.5482707 -6.909843
-7.206349 -7.5954013 -20.520628 2.661453 -4.7427673 -4.1130133 33.710545 -11.692699
-6.5075283 -0.100660525 -6.4888263 3.130847 -12.995477 -1.2615954 5.6424003 4.349691
-7.2682586 -9.938744 -32.295307 -8.737178 -11.1152 0.5982246 1.4731071 -2.9120624
-1.4416307 -8.755289 -11.265068 -24.61034 -3.0079434 2.8750088 -4.4695 -0.3839241
-13.794018 -13.361049 -5.95907 -5.215356 -3.5149918 -6.2453284 -3.5640223 0.69221044
-3.648216 -7.0090704 -5.3768077 3.9356866 -3.418231 -14.969651 -7.01984 -3.3397923
2.3464055 7.367842 -4.9849257 3.961905 3.6703255 -6.4460297 -4.207011 1.601769
2.7550495 -3.808297 4.785007 -3.6998496 6.333612 -2.3238857 -4.786724 -3.0691235
-9.441011 -6.6752057 2.9140573 -0.5197354 -4.635997 -2.0632854 5.1454735 -1.8070592
-3.271755 -0.42608216 0.50502235 -3.7998016 -0.3396341 -1.3675911 -7.2122073 2.087422
-2.7477443 -14.546719 -0.612047 -10.8386345 -6.802194 -6.497263 -14.52927 -1.5564562
0.27668232 -6.4322047 11.80029 7.8935533 2.027554 8.222578 7.3928227 -17.394201
0.12948239 -0.3667451 -4.268421 -8.316401 -4.0930486 -3.373249 0.69818383 1.7476269
4.8677506 -1.4436243 3.0979974 -0.77802646 -3.6578598 2.2883513 7.231139 0.45105147
2.7969441 2.8799078 -17.28457 -2.5134542 -8.452114 0.84328765 -7.624173 -0.10518432
-1.0132092 -9.142736 -3.9657426 -2.3962011 -8.217045 1.4283918 2.4577427 -0.97275954
-6.3779387 -9.978046 -13.980917 -9.189014 11.896613 7.8131933 -9.945248 2.0360792
00000000: 92f0 32c1 c69d 9bc0 123d aec0 74b0 17c1
00000010: 548e 0040 918c 6ac0 b8ce 90c1 cd10 d8c0
00000020: c9d1 b1c1 94e0 7540 3c74 c4c0 1fc7 14c0
00000030: 2844 06c1 5bd6 5740 46ea dfc0 e746 8240
00000040: 609e 803e d9f3 25c1 2508 bb3f 2acc 2440
00000050: 4796 20c1 0c8a e53f 5433 50c1 58af 93c0
00000060: e504 ba3f 88a0 a7c0 5a47 8dc0 4a39 21c1
00000070: 6eb6 1840 e969 03c1 774b 2040 537f cd3c
00000080: 6f2c 17c0 97dc 54c0 f546 93c0 1d8b 0040
00000090: 29d8 97c1 0deb fdc0 4798 4fc1 054a 5ec0
000000a0: 32c4 efc0 7684 5fc0 b2a8 fac0 4cb6 863f
000000b0: ebd7 33c0 fb39 7fc0 ab94 dfc0 5c0c 1dc1
000000c0: 50ea 72c1 07b5 b340 9344 21c1 f90f b4c1
000000d0: a5d9 e6c0 a03b 10c0 ff07 bb40 7287 04c1
000000e0: 2c21 60bf 41bd 6dc1 eefa 27c0 3ca3 aac0
000000f0: 0547 4ac0 a471 85c1 15b7 b440 5016 27be
00000100: b396 eac0 78c2 89c0 3d34 26c0 362e 85c0
00000110: 5d76 d1c0 a78b 08bf cfdb bec0 0a2d 3fc0
00000120: e831 43c1 78d4 e2c0 c321 56c0 09d6 05c1
00000130: 54ca b8bf 26c9 3fc1 95c8 c1c0 3dbd db3e
00000140: e1b1 45bf f9e8 083f 80a0 4840 8104 2dc1
00000150: dbd9 0a42 b968 8640 856c 2040 9c97 b3c0
00000160: cdf4 3bc0 74ba 2b41 acd1 7ec0 404c 2dc0
00000170: 8001 773f ff52 2fc1 dcc4 93c0 f10d 80c1
00000180: 1117 c1c0 ec9f dd3f 1d2a 26c1 545b 6ac1
00000190: 514e a5c1 911f 96c0 58e5 10c1 903d e3c0
000001a0: 8df9 99bf f499 74c0 42ab 31c0 fa96 7a40
000001b0: ce17 13c0 1570 09c1 6097 e7c0 c701 b2c0
000001c0: 7ff7 2ec0 5f78 81c0 e773 9ebf d044 2bc1
000001d0: 8b4d ca3f 8c01 4540 6f8b d1c0 6f1d ddc0
000001e0: 699a e6c0 870d f3c0 3f2a a4c1 3f55 2a40
000001f0: c0c4 97c0 ce9d 83c0 99d7 0642 4c15 3bc1
00000200: ac3d d0c0 1b27 cebd 77a4 cfc0 cc5f 4840
00000210: 79ed 4fc1 f57b a1bf 8b8e b440 ab30 8b40
00000220: 9395 e8c0 1805 1fc1 652e 01c2 7bcb 0bc1
00000230: dcd7 31c1 3f25 193f c68e bc3f 3b5f 3ac0
00000240: 5b87 b8bf aa15 0cc1 b83d 34c1 fae1 c4c1
00000250: 2582 40c0 2500 3840 2506 8fc0 b391 c4be
00000260: 4cb4 5cc1 dbc6 55c1 b4b0 bec0 32e4 a6c0
00000270: a0f5 60c0 bbd9 c7c0 f118 64c0 b434 313f
00000280: 5f7c 69c0 4e4a e0c0 cf0e acc0 4ae2 7b40
00000290: 4cc4 5ac0 b183 6fc1 87a2 e0c0 28bf 55c0
000002a0: 822b 1640 5dc5 eb40 8384 9fc0 da8f 7d40
000002b0: 9de6 6a40 e045 cec0 d69f 86c0 c406 cd3f
000002c0: bb52 3040 23bb 73c0 c71e 9940 56ca 6cc0
000002d0: f3ac ca40 8bba 14c0 d82c 99c0 856c 44c0
000002e0: 620e 17c1 499b d5c0 ea7f 3a40 610d 05bf
000002f0: 165a 94c0 de0c 04c0 b8a7 a440 b74d e7bf
00000300: 6f64 51c0 7127 dabe 2549 013f f32f 73c0
00000310: 85e4 adbe 3a0d afbf 67ca e6c0 5298 0540
00000320: 0bdb 2fc0 5cbf 68c1 1daf 1cbf 0c6b 2dc1
00000330: 93ab d9c0 94e9 cfc0 e477 68c1 f539 c7bf
00000340: 4ea9 8d3e 9fd4 cdc0 fdcd 3c41 fd97 fc40
00000350: 72c3 0140 ae8f 0341 0192 ec40 5327 8bc1
00000360: 0897 043e 04c6 bbbe e896 88c0 fa0f 05c1
00000370: 41fa 82c0 50e3 57c0 2dbc 323f 3db2 df3f
00000380: 9dc4 9b40 aec8 b8bf 9745 4640 be2c 47bf
00000390: 601a 6ac0 5974 1240 7e65 e740 38f0 e63e
000003a0: 2201 3340 6950 3840 cd46 8ac1 6fdc 20c0
000003b0: dc3b 07c1 b3e1 573f 3af9 f3c0 e06a d7bd
000003c0: d7b0 81bf a648 12c1 bace 7dc0 5c5b 19c0
000003d0: 0479 03c1 8bd5 b63f a84b 1d40 c506 79bf
000003e0: 1318 ccc0 14a6 1fc1 d6b1 5fc1 3406 13c1
000003f0: 8758 3e41 ae05 fa40 bc1f 1fc1 1f4f 0240

bias f4 [64]
-9.124771 -11.053964 -14.33668 -36.187492 -17.61554 -8.318137 6.61613 0.36701113
2.6742337 -6.7906303 -9.9366455 -8.669292 -0.19456074 -9.547557 -12.108336 -8.31366
-34.242558 -10.558246 -16.480127 -0.46832058 -1.8749194 -10.429805 -0.54787564 -16.876106
-7.084589 -37.76859 -23.243332 -0.48395818 -14.450317 -5.2547874 -3.1816778 -17.468687
-12.492216 -16.05932 -13.493015 -18.536034 -8.890656 -8.56041 -24.016405 -4.1573205
-12.991319 -14.756544 -20.652105 -21.464373 13.819819 -4.987519 -25.45546 -19.483263
-43.359173 -7.6215377 -12.819364 -21.533155 -18.307932 -10.162034 -9.919226 -7.6921964
-18.655619 -18.721134 -22.969252 -4.7369876 -26.351501 -0.46700585 -5.5138574 -26.871178
00000000: 10ff 11c1 09dd 30c1 0b63 65c1 febf 10c2
00000010: a0ec 8cc1 1717 05c1 56b7 d340 e2e8 bb3e
00000020: a526 2b40 d84c d9c0 80fc 1ec1 6cb5 0ac1
00000030: ee3a 47be cbc2 18c1 bfbb 41c1 c004 05c1
00000040: 61f8 08c2 93ee 28c1 4dd7 83c1 b7c7 efbe
00000050: 5cfd efbf 7be0 26c1 9441 0cbf 4402 87c1
00000060: f4b4 e2c0 0913 17c2 58f2 b9c1 5ec9 f7be
00000070: 8034 67c1 3827 a8c0 9ca0 4bc0 dfbf 8bc1
00000080: 1ee0 47c1 7d79 80c1 64e3 57c1 cc49 94c1
00000090: 2140 0ec1 70f7 08c1 9921 c0c1 c508 85c0
000000a0: 71dc 4fc1 ce1a 6cc1 8337 a5c1 09b7 abc1
000000b0: fb1d 5d41 c199 9fc0 c8a4 cbc1 b9dd 9bc1
000000c0: cb6f 2dc2 a3e3 f3c0 1d1c 4dc1 e743 acc1
000000d0: a576 92c1 b197 22c1 26b5 1ec1 7926 f6c0
000000e0: b53e 95c1 e2c4 95c1 07c1 b7c1 6795 97c0
000000f0: e0cf d2c1 641b efbe 8571 b0c0 2cf8 d6c1

weight f4 [7, 64]
13.3785715 -9.423004 -13.806924 4.204027 -3.4586282 10.980824 -13.783142 -10.068112
8.538678 13.430103 9.996502 3.9026563 3.6237109 1.934652 -11.596399 16.809422
-5.338314 6.123097 -4.5708213 0.11088642 -27.952034 8.073303 0.03011148 10.329689
6.41087 0.48094156 -6.251304 0.029563187 -14.076927 -4.4528623 2.0344713 12.114077
8.5067005 -17.853685 -26.1937 -5.2556424 4.9838085 3.4199781 -29.550291 4.781687
1.8185298 1.3504845 -4.459653 -19.635963 4.613628 17.237356 -1.4842975 6.510324
-21.916742 10.862201 6.1505194 2.5807261 -4.513937 5.245023 -0.18663004 5.9290566
11.759551 -12.418502 -4.438741 14.873989 5.3207564 0.005518169 2.3969862 -7.6708627
15.170317 10.63788 -12.279982 4.9966097 15.931015 4.2665625 -3.035702 -4.017529
-8.093154 9.855881 21.20855 -1.6896645 -35.667328 -8.529717 -6.7787943 10.877998
8.603569 3.7923083 -13.984944 0.09307601 1.4331853 2.9338455 0.055218805 -22.576654
0.90686005 1.2643702 8.346215 0.27410465 -9.556524 -4.052926 3.8510811 17.743618
4.336581 -16.629414 -3.670323 -11.806528 19.065498 15.897611 -20.160404 6.7718506
6.813011 -0.88621217 9.739821 -10.387521 6.57489 15.932174 -20.657549 3.8563802
0.95511085 2.6496258 5.546063 -14.949711 -3.3682625 8.8675165 4.697189 7.9815598
10.15793 -18.129892 -22.963667 14.453071 -20.067888 0.06526178 14.055796 -20.605127
13.358216 8.605498 5.628608 -10.346678 7.768764 3.9786823 -32.250202 -5.8814936
0.059919037 16.955177 11.880643 2.4329846 -5.5898304 5.902278 -19.159527 7.9144344
9.835401 -3.398319 -10.925989 0.06028861 7.769649 -12.234157 -0.008534736 -7.892932
-2.527608 -7.4764147 6.934302 0.0020484957 -1.957534 -20.413452 5.7286863 -1.8126445
5.339073 -12.380613 -13.180521 -4.466361 16.990273 -5.4577794 -26.060661 18.759634
5.936774 9.918537 -31.382668 -15.076656 -4.402659 9.748238 6.1311383 5.7795515
-6.222701 -1.5492216 1.2649962 7.44195 -6.4067097 13.392638 8.238628 6.9580383
11.961166 -22.982431 -26.857374 5.8192034 11.625185 0.053096235 5.5848713 -9.129716
14.766564 -13.714014 -9.8871765 9.870606 12.458893 -2.970729 -9.8107395 -3.057286
16.887503 18.111206 19.061954 4.617137 2.7608001 -23.254667 10.165962 7.9761906
11.729081 5.291788 -14.098869 -0.032972254 0.8158693 5.1796303 0.014364125 -11.48486
2.1457567 -9.234707 7.861917 0.1060844 -13.764941 -34.614468 -24.512428 5.5263166
6.020621 -22.198954 -15.425096 -6.519465 10.861818 7.3525066 -7.8088284 10.30154
7.498508 33.218174 -24.551888 -19.696398 11.106602 9.831417 6.6924486 6.9543977
-4.618289 11.253933 -6.333479 21.64126 -5.749771 11.435708 14.078087 5.88572
-21.45051 12.040173 23.388979 4.285234 -8.23827 -0.0068417266 1.3550155 -10.062544
00000000: a10e 5641 a0c4 16c1 29e9 5cc1 6487 8640
00000010: 2a5a 5dc0 75b1 2f41 c087 5cc1 fd16 21c1
00000020: 6d9e 0841 b4e1 5641 acf1 1f41 1fc5 7940
00000030: e1ea 6740 ada2 f73f da8a 39c1 b279 8641
00000040: 78d3 aac0 69f0 c340 2b44 92c0 6b18 e33d
00000050: c49d dfc1 402c 0141 5aac f63c 6846 2541
00000060: d925 cd40 f93d f63e af0a c8c0 7f2e f23c
00000070: 183b 61c1 d97d 8ec0 c734 0240 42d3 4141
00000080: 721b 0841 59d4 8ec1 b38c d1c1 392e a8c0
00000090: 5c7b 9f40 ece0 5a40 ff66 ecc1 9403 9940
000000a0: 96c5 e83f addc ac3f 7ab5 8ec0 7416 9dc1
000000b0: d7a2 9340 1be6 8941 76fd bdbf 9354 d040
000000c0: 7d55 afc1 93cb 2d41 0ed1 c440 9e2a 2540
000000d0: 2c72 90c0 3ad7 a740 f21b 3fbe d5ba bd40
000000e0: 1f27 3c41 2fb2 46c1 2b0a 8ec0 dcfb 6d41
000000f0: a343 aa40 c2d1 b43b 3968 1940 b577 f5c0
00000100: 9eb9 7241 c234 2a41 ce7a 44c1 3ae4 9f40
00000110: 70e5 7e41 ae87 8840 f148 42c0 998f 80c0
00000120: 8f7d 01c1 b0b1 1d41 1cab a941 ed46 d8bf
00000130: 58ab 0ec2 b979 08c1 e2eb d8c0 480c 2e41
00000140: 38a8 0941 2eb5 7240 55c2 5fc1 a39e be3d
00000150: 9e72 b73f 20c4 3b40 1d2d 623d fd9c b4c1
00000160: fb27 683f e2d6 a13f 198a 0541 7257 8c3e
00000170: 86e7 18c1 92b1 81c0 1d78 7640 eef2 8d41
00000180: 46c5 8a40 0a09 85c1 92e6 6ac0 8ae7 3cc1
00000190: 2486 9841 9d5c 7e41 8248 a1c1 00b3 d840
000001a0: 3004 da40 cdde 62bf 4fd6 1b41 4933 26c1
000001b0: 8065 d240 2fea 7e41 a942 a5c1 efce 7640
000001c0: 2582 743f 7893 2940 5979 b140 0432 6fc1
000001d0: 9d91 57c0 59e1 0d41 5f4f 9640 f068 ff40
000001e0: e286 2241 050a 91c1 97b5 b7c1 c73f 6741
000001f0: 098b a0c1 f8a7 853d 8ae4 6041 4dd7 a4c1
00000200: 41bb 5541 1fb0 0941 8f1d b440 fe8b 25c1
00000210: b799 f840 bba2 7e40 3500 01c2 3235 bcc0
00000220: aa6d 753d 34a4 8741 1d17 3e41 05b6 1b40
00000230: e4df b2c0 76df bc40 b646 99c1 0c43 fd40
00000240: cd5d 1d41 0f7e 59c0 dad0 2ec1 31f1 763d
00000250: f7a0 f840 1bbf 43c1 47d5 0bbc e692 fcc0
00000260: 54c4 21c0 ca3e efc0 cde5 dd40 0e40 063b
00000270: 7990 fabf c04e a3c1 6651 b740 bc04 e8bf
00000280: b0d9 aa40 fe16 46c1 6ae3 52c1 6eec 8ec0
00000290: 14ec 8741 21a6 aec0 3c7c d0c1 bb13 9641
000002a0: 0dfa bd40 54b2 1e41 b40f fbc1 fc39 71c1
000002b0: 95e2 8cc0 c8f8 1b41 4932 c440 16f2 b840
000002c0: 5e20 c7c0 e54c c6bf 65eb a13f 7424 ee40
000002d0: c403 cdc0 3f48 5641 6cd1 0341 40a8 de40
000002e0: f060 3f41 05dc b7c1 e7db d6c1 ea36 ba40
000002f0: c200 3a41 707b 593d 44b7 b240 5113 12c1
00000300: d943 6c41 9a6c 5bc1 e031 1ec1 01ee 1d41
00000310: a057 4741 6d20 3ec0 caf8 1cc1 93aa 43c0
00000320: 9b19 8741 c0e3 9041 e27e 9841 96bf 9340
00000330: f3b0 3040 8f09 bac1 c8a7 2241 f43c ff40
00000340: 51aa 3b41 5456 a940 f894 61c1 ea0d 07bd
00000350: cfdc 503f 88bf a540 8257 6b3c fdc1 37c1
00000360: 1454 0940 5cc1 13c1 d394 fb40 c742 d93d
00000370: 333d 5cc1 3775 0ac2 7419 c4c1 96d7 b040
00000380: eda8 c040 7597 b1c1 31cd 76c1 759f d0c0
00000390: 02ca 2d41 bc47 eb40 ece1 f9c0 1cd3 2441
000003a0: c7f3 ef40 69df 0442 446a c4c1 3992 9dc1
000003b0: a4b4 3141 7c4d 1d41 8a28 d640 6d8a de40
000003c0: 06c9 93c0 1c10 3441 dcab cac0 4d21 ad41
000003d0: 20fe b7c0 a9f8 3641 d83f 6141 d157 bc40
000003e0: a59a abc1 8ca4 4041 a11c bb41 a320 8940
000003f0: f4cf 03c1 9030 e0bb 2671 ad3f 2e00 21c1

bias f4 [7]
-37.304077 -35.83595 -28.158504 -22.105536 -29.794205 -36.23719 -38.957478
00000000: 6037 15c2 0358 0fc2 9e44 e1c1 23d8 b0c1
00000010: 885a eec1 e2f2 10c2 75d4 1bc2
