strat_v7.pt (torch, 25871 bytes, 4 tensors)

weight f4 [64, 84]
0	0x403f8dea	2.9930367
1	0xbff757bd	-1.9323651
2	0xc0f05712	-7.5106287
3	0xc072682d	-3.7876084
4	0x4078300b	3.8779323
5	0xc0719c02	-3.775147
6	0xc06a4896	-3.6606803
7	0xc1001917	-8.006125
8	0x40e67001	7.2011724
9	0xc02fef39	-2.748976
10	0xc13456fc	-11.271236
11	0x3eebec02	0.46078497
12	0x3d7221a5	0.059114117
13	0xc0832808	-4.0986366
14	0xc0cdc168	-6.429859
15	0x3f7df0e6	0.99195707
16	0xc0babcf7	-5.835567
17	0xc00bf6f9	-2.186949
18	0xc03a5bb8	-2.911848
19	0xbe998dfb	-0.29991135
20	0xc057852c	-3.3675032
21	0xc13679d6	-11.404745
22	0x40bcf48f	5.9048533
23	0xbee58ea8	-0.448354
24	0xc14b1296	-12.692038
25	0xc09dff42	-4.9374094
26	0x40111671	2.2669947
27	0xc025a058	-2.5879116
28	0xbfa9e080	-1.3271637
29	0x3f8efe31	1.1171323
30	0xbf2e177b	-0.6800458
31	0xc0fdb827	-7.9287295
32	0xc09d9c1f	-4.9253078
33	0xbf9becf1	-1.2181684
34	0xc0a2bd0c	-5.085577
35	0xc0cac9db	-6.3371406
36	0xc091cc20	-4.5561676
37	0xc0d89bad	-6.7690034
38	0xc0845bb9	-4.1361966
39	0xc03ea6ea	-2.9789376
40	0xc05bbcb5	-3.4333928
41	0xc0c5c9c5	-6.18088
42	0xc0a6b9d7	-5.2101855
43	0x40922d19	4.568005
44	0xc0869a0e	-4.2063055
45	0x3e85cf38	0.26134658
46	0xc08d0162	-4.406419
47	0xc08ca0dc	-4.394636
48	0xc02a9107	-2.6651018
49	0xc0dbf635	-6.8738046
50	0x3f93b3d0	1.153925
51	0x40a22280	5.0667114
52	0xc06b7c3c	-3.6794577
53	0xc0565aef	-3.3493001
54	0x3f4a0333	0.7891113
55	0x400b5788	2.1772175
56	0xc13533ee	-11.325178
57	0xc0aea5a6	-5.4577208
58	0x4008375d	2.128379
59	0xc0ef75ab	-7.483114
60	0xc0e32211	-7.0979085
61	0x3fb3f6a6	1.4059646
62	0xbf08af60	-0.533926
63	0xbece20e6	-0.40259475
64	0xbf3f3a39	-0.74698216
65	0xc031c35d	-2.777549
66	0xc0c7ec8a	-6.2476244
67	0xc092e4f4	-4.5904484
68	0x408ba5fe	4.3640127
69	0x402010c1	2.5010226
70	0xc072af60	-3.791954
71	0xc106eaea	-8.432352
72	0xbf158ba0	-0.58416176
73	0xc065b8ee	-3.5894122
74	0xc05543bc	-3.3322592
75	0x3ef16f36	0.4715516
76	0xc1034f2a	-8.206827
77	0xbfd30f98	-1.6489134
78	0xc0b7adfb	-5.739988
79	0xc033ada8	-2.8074741
80	0x3eb424e8	0.35184407
81	0xbf94b145	-1.1616598
82	0xc0be73ec	-5.9516506
83	0xc0693dcc	-3.6443968
84	0x4103755f	8.216155
85	0xc0f4ed4a	-7.653966
86	0xc0e1ce82	-7.0564585
87	0x408fd5a9	4.4948316
88	0xc113ced1	-9.237992
89	0x40a971e7	5.295154
90	0xc0c2e381	-6.0902715
91	0xbf5dfe99	-0.8671661
92	0xc08ad154	-4.3380527
93	0x408a86c6	4.328952
94	0xc0d1ef81	-6.5604863
95	0xc072d963	-3.7945182
96	0x40a8b774	5.272394
97	0x4071b929	3.7769263
98	0xc083463c	-4.1023235
99	0xc01739b2	-2.3628964
100	0xc116450a	-9.391855
101	0xbfd2e8ac	-1.6477256
102	0xc0bc67a2	-5.8876505
103	0xbf457c60	-0.77142906
104	0xc0a94956	-5.290202
105	0xc14a5843	-12.646548
106	0xc0475aea	-3.114924
107	0xc01a7ddf	-2.4139326
108	0xc02cc382	-2.6994328
109	0xc0d5e4eb	-6.684194
110	0xbdaebd92	-0.085322514
111	0xc07db099	-3.9639037
112	0xbfe581b8	-1.7930212
113	0xbf8ca532	-1.0987914
114	0xc0d94764	-6.7899647
115	0xc06c9c80	-3.697052
116	0xc0c250fd	-6.0723863
117	0xc10598a1	-8.349763
118	0xc0f236ce	-7.56919
119	0xbffa6e14	-1.9564843
120	0xc1019acd	-8.100293
121	0xc120afc6	-10.042913
122	0xc0d4487d	-6.6338487
123	0xc0689d12	-3.6345868
124	0xc0992550	-4.7858047
125	0x3f4aba2d	0.7919033
126	0x4110d431	9.051805
127	0xc021facb	-2.5309322
128	0xc0d6d988	-6.714054
129	0xc13f0746	-11.939276
130	0xc088738e	-4.264106
131	0xc11a9b3d	-9.6629
132	0xc0e96cd6	-7.2945356
133	0xc1175b1a	-9.459742
134	0xc0f9cf9b	-7.8065925
135	0xc0e63b57	-7.1947436
136	0x3c947ab6	0.01812492
137	0xc1136aaa	-9.213541
138	0xc0cc255e	-6.3795614
139	0xc0f2e234	-7.5901127
140	0xbfef4f24	-1.8696027
141	0xc119f036	-9.621145
142	0xbd8b0d34	-0.06789628
143	0x3e9c9bbb	0.30587563
144	0xc0bec112	-5.961068
145	0xc178adf6	-15.542471
146	0xbfbaafaf	-1.4584864
147	0xc007a440	-2.1194
148	0xc0c234db	-6.068952
149	0xc07942bb	-3.894698
150	0xc0b5505c	-5.6660595
151	0xbfd4b427	-1.6617478
152	0xc0e4098f	-7.126167
153	0xc0a3d388	-5.1195717
154	0xc0c471ec	-6.1389065
155	0xbef380bb	-0.4755915
156	0xc105ee5e	-8.370695
157	0xbfe7e83f	-1.8117751
158	0xc10f33d5	-8.950154
159	0xc108f788	-8.560432
160	0xbf943d64	-1.1581235
161	0xbf45c795	-0.77257663
162	0xbd6bcf0d	-0.057570506
163	0xc03cfa2b	-2.952769
164	0x3f01e0bc	0.5073354
165	0xc1110b3e	-9.065245
166	0xc0872381	-4.223084
167	0xbfadc4a7	-1.3575639
168	0x40adc422	5.430192
169	0xc04ec938	-3.2310314
170	0xc1461d72	-12.382189
171	0xc002f761	-2.0463488
172	0xc150a018	-13.039085
173	0xc0ef38b2	-7.475671
174	0xc142202f	-12.132857
175	0xbfdcf4b6	-1.726218
176	0xc00d084c	-2.2036314
177	0x408ade4c	4.339636
178	0xc06fc2c8	-3.7462635
179	0xc0c74351	-6.2269673
180	0x3f06e129	0.5268732
181	0xbf08351c	-0.5320604
182	0xc03c449b	-2.9416873
183	0xc0e0b7fc	-7.022459
184	0x3f90fe4b	1.1327604
185	0xc0ff41ba	-7.9767733
186	0xc011ae37	-2.2762582
187	0x406e6f47	3.7255418
188	0xc0680f0a	-3.625918
189	0xc13a29a3	-11.635165
190	0xc10132ad	-8.074872
191	0xc114e2f5	-9.305409
192	0x3fd9b944	1.7009664
193	0xc0759a79	-3.8375533
194	0xc15a57aa	-13.646402
195	0xc13707d6	-11.439413
196	0xc13fdf46	-11.99201
197	0xc10fb6c0	-8.982117
198	0xc0866535	-4.1998544
199	0xc0936118	-4.6056023
200	0xbfea2ffd	-1.8295895
201	0xc0f612b0	-7.689781
202	0xc193d2cf	-18.477934
203	0xbf5b2b14	-0.85612607
204	0xc1a38d09	-20.443865
205	0xc12140e8	-10.078346
206	0xc04685b7	-3.1019113
207	0xbf4e9864	-0.8070128
208	0xc0872c0b	-4.2241263
209	0xc161c68c	-14.110973
210	0xc08da430	-4.4262924
211	0xbf471e64	-0.7778075
212	0xc14e0db6	-12.878347
213	0xc0d0437b	-6.5082374
214	0xc1323aa0	-11.139313
215	0x3f91cffd	1.1391598
216	0xc0dc2ed3	-6.880716
217	0xc11a5ce7	-9.647681
218	0xc121a7ae	-10.103437
219	0xc0caa32a	-6.3324175
220	0xc02dd6fc	-2.7162466
221	0xc0cbc2b3	-6.367517
222	0x3f7fc858	0.99915075
223	0xc160df74	-14.054554
224	0xc11b1bdf	-9.694304
225	0xc090d504	-4.526003
226	0xc11b90e6	-9.722876
227	0xc065ad02	-3.5886846
228	0xc156f8d5	-13.43575
229	0xc14294e3	-12.161349
230	0xc0dd2b6f	-6.911552
231	0xc190a006	-18.078136
232	0xc1264f05	-10.394292
233	0x3e0f62e6	0.1400257
234	0xc12e7720	-10.904083
235	0xc0e6a665	-7.207812
236	0x4115065e	9.3140545
237	0xc07a5d20	-3.911934
238	0xc0c355fa	-6.104245
239	0xbea04d3c	-0.31308925
240	0xc039c57c	-2.9026785
241	0x3f1f1c65	0.621527
242	0xc1a260e7	-20.297316
243	0xc037e24b	-2.8731868
244	0xc181796d	-16.18429
245	0xc1090423	-8.56351
246	0x3e079b47	0.13242827
247	0xc0d4375b	-6.6317573
248	0xc09c8fdc	-4.892561
249	0xc0a9863c	-5.297636
250	0xc1b66667	-22.800001
251	0xc0d93c79	-6.788632
252	0x40823433	4.068872
253	0xc06e271a	-3.7211366
254	0xc186ffcd	-16.874903
255	0xc08609d5	-4.1887

bias f4 [64]
0	0xc12fe1f0	-10.9926605
1	0xc053a2bb	-3.3068073
2	0xc0f911f8	-7.7834435
3	0xc0ba5034	-5.8222904
4	0xbfe1c5c9	-1.7638484
5	0xbed46b94	-0.41488326
6	0xc1380551	-11.501298
7	0xbf161daa	-0.58639014
8	0xbf0eb860	-0.55750084
9	0xbd007082	-0.031357296
10	0xbeb8df1d	-0.36107722
11	0xc1105170	-9.019882
12	0xbfec88ea	-1.8479283
13	0xc09e7346	-4.9515715
14	0xc1363df6	-11.390127
15	0xc0c69d64	-6.2067127
16	0xc07ad81e	-3.9194407
17	0xc1727b5c	-15.155117
18	0xc02e0791	-2.7192118
19	0xc0728e73	-3.7899444
20	0xc0531a7f	-3.2984922
21	0xc128fab3	-10.561206
22	0xc15a2496	-13.633932
23	0xc13d6853	-11.83797
24	0xbfb6b85f	-1.4275016
25	0xc14b5909	-12.709237
26	0xbcb38df5	-0.021918276
27	0xc082a78a	-4.0829515
28	0xc0f83a3f	-7.75711
29	0xc02623b7	-2.5959299
30	0xc0bfed4e	-5.997718
31	0xbef74302	-0.4829331
32	0xc0b7458f	-5.727241
33	0xc179e79f	-15.619048
34	0xc00ea70c	-2.2289457
35	0xc063d1b7	-3.559675
36	0xbcd45997	-0.025921626
37	0xc0a5e0ef	-5.1837077
38	0xc121c708	-10.111092
39	0xc17baaa7	-15.729163
40	0xc00d9b21	-2.2125933
41	0xc0e14c06	-7.04053
42	0xc0d93c3d	-6.7886033
43	0xbfaaf8c0	-1.3357162
44	0xc0b8116d	-5.752127
45	0xbf96df10	-1.1786823
46	0xc14eb5bf	-12.919372
47	0xc087ef6f	-4.2479777
48	0xc087f7f5	-4.249018
49	0xbec5c7a2	-0.3862887
50	0xc1991acf	-19.13809
51	0xc0c4a85a	-6.1455507
52	0xbf8949bb	-1.0725626
53	0xc0d8ee65	-6.779101
54	0xbeb598dc	-0.35468185
55	0xc172b462	-15.169039
56	0xc0f8be52	-7.7732325
57	0xc126335f	-10.387542
58	0xc065e5dd	-3.5921547
59	0xc11a2269	-9.633401
60	0xc106603a	-8.398493
61	0xc1121285	-9.129521
62	0xc0581776	-3.376432
63	0xc12f136c	-10.942242

weight f4 [7, 64]
0	0x415d19fe	13.818846
1	0x410f493d	8.95538
2	0x410e7324	8.9031105
3	0x40c8fd3b	6.280912
4	0x4013f04b	2.3115413
5	0xbe8fe346	-0.28103083
6	0x416c4c9c	14.768703
7	0x401dc2b8	2.4650097
8	0xbe838dad	-0.25694028
9	0x3cfa854a	0.030581135
10	0x3fa752d5	1.3072153
11	0x3e8959f8	0.26826453
12	0xbfb39734	-1.4030519
13	0x40a38319	5.109753
14	0xc118a73c	-9.540829
15	0x41673788	14.451057
16	0x40e43a6a	7.1321306
17	0xc110ffce	-9.062452
18	0x414cb99c	12.795315
19	0x405f4b82	3.4889836
20	0x40b1e64c	5.5593624
21	0x4189599e	17.168758
22	0x3ff2ff31	1.8984128
23	0x4189319f	17.14923
24	0xc0863fc4	-4.195284
25	0x412a5c08	10.647469
26	0x3f5b4449	0.8565107
27	0x40b2eb6c	5.591238
28	0x41949044	18.570442
29	0x4104b702	8.29468
30	0x3faba8c5	1.3410879
31	0xbdb3dce8	-0.08782369
32	0x40cead6e	6.4586706
33	0x415f7ce3	13.96799
34	0x3fc00f73	1.5004715
35	0x408daa62	4.4270487
36	0x413af8dd	11.685758
37	0x41258f93	10.347552
38	0x41689c00	14.538086
39	0x41776a46	15.463446
40	0xc07205c8	-3.7816029
41	0x3feedfab	1.8662008
42	0x40f34ad2	7.6028833
43	0xc04abb8e	-3.1676974
44	0x40872413	4.2231536
45	0x3e0da5e1	0.13832809
46	0x408aa51a	4.332654
47	0x40c8f466	6.279834
48	0x40f1856f	7.5475383
49	0x3ec5e80e	0.38653606
50	0x4122ffd9	10.187463
51	0xc204f250	-33.236633
52	0xc0080ecd	-2.1259034
53	0x4069b71e	3.6518016
54	0x402b5e90	2.6776466
55	0xc0dbbe4b	-6.866979
56	0x4191146e	18.134975
57	0x414a41d1	12.641068
58	0xc0ba81fb	-5.8283668
59	0x3f8beb90	1.0931263
60	0x3ebaa32a	0.3645261
61	0x40da7af1	6.8275075
62	0x40b02892	5.5049524
63	0x41b243f7	22.283186
64	0xc10c03de	-8.750944
65	0x4149fc39	12.624078
66	0x3fcc7c0d	1.5975357
67	0xbfe642b2	-1.7989104
68	0x3f695e12	0.91159165
69	0x3db31082	0.08743383
70	0xc16b2464	-14.696384
71	0x4139588e	11.58412
72	0x3ebf4ad7	0.37361786
73	0x3c83e591	0.016100677
74	0x3fa893ff	1.3170165
75	0x409ca5b8	4.8952293
76	0x3fdbc0a6	1.7168167
77	0x3f31c7e5	0.6944564
78	0x418e5109	17.789568
79	0x414d7fdd	12.843717
80	0x4146acbb	12.417171
81	0x414cfd71	12.811875
82	0x410edf1a	8.929468
83	0x3f1d25db	0.6138589
84	0x412cab65	10.791844
85	0xc1430bc6	-12.190374
86	0xc24b5e61	-50.842167
87	0x414767b4	12.462818
88	0x4035c4b4	2.8401308
89	0xc20074db	-32.114117
90	0xc05dfa0d	-3.468387
91	0x41013109	8.074471
92	0x4117f6b3	9.497729
93	0x409ad39d	4.8383317
94	0x40d24ed1	6.572121
95	0x3d2fb8de	0.042900912
96	0x417c4929	15.767861
97	0x401aaf41	2.4169466
98	0x3d248911	0.04016978
99	0x409946db	4.7898993
100	0x40a8df7e	5.2772818
101	0x41565558	13.395836
102	0x41b95e2e	23.170986
103	0x4064d72a	3.5756326
104	0xbf053db0	-0.5204725
105	0xbea0ec34	-0.3143021
106	0xbf9c788a	-1.2224286
107	0x4072c375	3.7931798
108	0x4141ec40	12.120178
109	0x3f977014	1.1831079
110	0x40473ca4	3.1130762
111	0x40833d99	4.1012692
112	0xbeecaf0c	-0.462273
113	0x3e992085	0.29907623
114	0x40ad720f	5.420173
115	0x41fc4740	31.53479
116	0x3ff4ab74	1.9114823
117	0xbf0145b6	-0.50496995
118	0x403215b2	2.7825742
119	0xc1daeeff	-27.366697
120	0x418a7c5f	17.310728
121	0xc1898ff9	-17.1953
122	0x4132fc06	11.186529
123	0x3fdfce02	1.7484744
124	0x407b5318	3.9269466
125	0x41a9eb7d	21.239985
126	0xc05517eb	-3.3295848
127	0xc12d4a9e	-10.830717
128	0x4134794c	11.2796135
129	0x406611e0	3.594841
130	0x406f5417	3.7395074
131	0x4140b117	12.043235
132	0x409b4480	4.852112
133	0xb7e47382	-2.7233506e-05
134	0xc06fb1ae	-3.7452197
135	0x3fe26fb9	1.7690345
136	0x3e32d519	0.17464103
137	0x3e1205bb	0.14259999
138	0x4104b16f	8.293319
139	0xc18cb238	-17.58702
140	0xbdefd7f3	-0.11711111
141	0x4112dfd3	9.179645
142	0xc16edf51	-14.929521
143	0x40c6474e	6.196204
144	0x3fb60798	1.4221067
145	0x401d63a4	2.4592066
146	0x40a12f23	5.037004
147	0x40ec6dac	7.3883877
148	0x3ff5c9cf	1.9202212
149	0x40421e43	3.033097
150	0x401f1b69	2.486048
151	0xc00de089	-2.2168295
152	0x40fde26e	7.9338903
153	0x415b58db	13.709193
154	0xc0f440a2	-7.6328897
155	0x40fc9163	7.8927474
156	0x4162a1e8	14.164528
157	0x40b4f9de	5.6555014
158	0x41a96fd5	21.179605
159	0x3dc38c84	0.095482856
160	0x41115207	9.082526
161	0xc1127a36	-9.154837
162	0xbf896cf3	-1.0736374
163	0xc0ee61e9	-7.449452
164	0xc0ed4d55	-7.41569
165	0x4147bd0d	12.483655
166	0x418cd9f5	17.606424
167	0x4180cea9	16.100908
168	0x410a3a07	8.639167
169	0x40cf84dc	6.484968
170	0x40fced92	7.9040003
171	0xc0b117d4	-5.5341587
172	0x3fd6c74a	1.6779568
173	0x415e7d9b	13.905665
174	0xc093f12e	-4.623191
175	0x41827a77	16.309797
176	0x3f1fda96	0.6244291
177	0x40b6c7ff	5.7119136
178	0x3f2b1a1f	0.6683673
179	0x409278eb	4.5772605
180	0xc09ce188	-4.9025307
181	0x4158c20b	13.547374
182	0x411976a6	9.591467
183	0xc1078df8	-8.47216
184	0x4180a038	16.078232
185	0xc1069218	-8.410667
186	0x40aa734f	5.3265758
187	0x4068a87f	3.6352842
188	0x402082f4	2.5079927
189	0x41363be1	11.389619
190	0x410a58e8	8.646706
191	0x41ca1d03	25.264166
192	0x40e1fb58	7.0619316
193	0x4089cbe0	4.306137
194	0x4183f6fd	16.4956
195	0x3fd05f9b	1.6279176
196	0x40ca19a2	6.315629
197	0x3c406a05	0.011744027
198	0xc11118e7	-9.06858
199	0x40ea7182	7.326356
200	0xbd59f9ca	-0.053216733
201	0xbd068804	-0.03284456
202	0x41016a1a	8.088404
203	0xc109bd18	-8.608665
204	0x3ff50da1	1.9144784
205	0x417eb66e	15.9195385
206	0xc09e7a00	-4.9523926
207	0x41b096ce	22.073635
208	0x413d9ef5	11.851308
209	0x408cf566	4.404956
210	0xc0c83cd5	-6.257426
211	0x410c6b4f	8.776198
212	0x410a9570	8.661484
213	0x3f0177fe	0.5057372
214	0xc08e1f16	-4.4412947
215	0x40ce678c	6.45014
216	0x4023bcb9	2.5583937
217	0x4140f817	12.060569
218	0xc0669805	-3.6030285
219	0x41224ce7	10.143775
220	0x3d24c68d	0.040228415
221	0x412be57e	10.743528
222	0x412e6f95	10.902242
223	0x3e9c4c90	0.30527163
224	0x4071f69f	3.7806776
225	0x40cc7be7	6.390125
226	0x4024b43a	2.5735002
227	0x4162db70	14.178574
228	0x3eec4841	0.46148875
229	0x417e41ca	15.891062
230	0x4146feff	12.437255
231	0x415f2315	13.946065
232	0x414494ff	12.286376
233	0x40cee023	6.4648604
234	0x40397d32	2.8982663
235	0x41404b51	12.018388
236	0x41160647	9.376533
237	0xc084050a	-4.125615
238	0xc223f2f8	-40.987274
239	0xc054ca3c	-3.3248434
240	0x410601b8	8.37542
241	0x40355c9f	2.8337781
242	0x4199df52	19.234043
243	0x3f4e992f	0.8070249
244	0xc0d27b82	-6.5775766
245	0xbf0dfd98	-0.5546508
246	0xbeb668ea	-0.35626918
247	0xc02719f4	-2.610959
248	0x411ff83a	9.998102
249	0xc1051d36	-8.319632
250	0x40253282	2.5812078
251	0xc0a93061	-5.2871556
252	0x40df592b	6.979635
253	0x416bc8d0	14.7365265
254	0xc0aa0335	-5.3128915
255	0x41bca30a	23.579609

bias f4 [7]
0	0xc36b9b3e	-235.60641
1	0x407e01e0	3.9688644
2	0xc385f306	-267.89862
3	0xc379886d	-249.53291
4	0xc3903ee0	-288.4912
5	0xc3774a3c	-247.28998
6	0xc36d0378	-237.01355
