strat_v1.pt (torch, 25871 bytes, 4 tensors)

weight f4 [64, 84]
00000000: 221d f8c0 090c debe 93c7 9440 e859 d63e
00000010: cd9b a73f e629 4140 3f49 c9c0 1ed7 7bc0
00000020: ea3f 2cbf 3744 753e f0f1 8140 fac4 4a40
00000030: 143a c8bf ec30 98c0 550e 163f a1e7 14c0
00000040: 2657 2ac0 38eb 50c0 8a9d a140 8ee2 e8bf
00000050: 4cd8 a9bf 1098 b4bf 5e33 c03d e2d3 fcbe
00000060: b9c9 e1bf f4d2 5fc0 c1e4 7ec0 b42a 2ac0
00000070: 0f16 f7c0 34f0 52c0 6483 90c0 ba7e 1ac0
00000080: 70f4 abbf 2a06 0cc0 6ff9 94c0 f1c9 09c0
00000090: 4627 bac0 4372 51c0 48fa a4c0 6c12 6ec0
000000a0: a6f3 39c0 385e 44bf 2e02 0741 4159 9140
000000b0: e694 2741 42eb ef3e 54c5 7dc0 9316 2840
000000c0: f817 78c0 bb9c f5c0 89b7 0ac1 6abb 1b41
000000d0: 006b 86c0 7ace dc40 1cdd 4d41 9e89 29c0
000000e0: 19c4 5dc0 1a59 3740 e835 2a41 59f1 ca40
000000f0: 9b40 3abe 653f 9540 c7e8 34c0 c895 8abf
00000100: b5b3 5c3f c01c 0fc0 73ff 05c1 a45e 9540
00000110: 8f9d 763d 945d dac0 6a04 a4c0 fc07 80c0
00000120: f454 8dc0 4aa2 6abf 66a8 f4bf 1946 1bc1
00000130: 0022 0ac1 7ccf 30c1 3b4b b440 c300 22c1
00000140: 7f85 073f eaf5 15bf cb41 50c1 5094 84c1
00000150: cc38 cfbf c1ce 44bf b272 b2bf ff81 c5c0
00000160: c1e5 4dc0 8c49 dfbf 05d1 723f b335 31c0
00000170: f2da b23e 1799 d0bf 346d d43f 43fd 09c0
00000180: adf7 09bf 0a9b 1ec0 c163 5abf 9a09 8c3e
00000190: ac08 713f 6530 48bd d232 0cc0 4d51 b83f
000001a0: 4a60 aebe 98ad b0bf 08eb 3fbf 28a4 9cc0
000001b0: e360 acbf 1a95 21c0 302b 02be 1aca efbf
000001c0: c66b 38bf 5554 0ac0 4369 e63d 7803 fdbf
000001d0: a35e 2fc0 0d6f bfbf 9264 98c0 ab98 bdbf
000001e0: c3ba 86c0 f4fb 843f bcfd 22c0 b7dd 11c0
000001f0: 6b77 13c0 c7fe e1bf db6d 92c0 f6e0 cbbf
00000200: ed3f b6c0 9285 20c0 a167 47c0 e232 5f3d
00000210: ce63 cd3f c625 333e 02b4 efbf 9f9f c5bf
00000220: dad5 f1be b2a3 4f40 85b4 3f40 e5cb 50bf
00000230: 8172 83c0 1306 68c0 b9ec debf 9502 af3f
00000240: 07f6 0040 62ca 5540 971b 9ec0 a86e d2c0
00000250: 4cce 4abf dc9a db3d 2f3f 2b3f fa94 4cc0
00000260: ba96 0d40 d08f 40c0 f710 b1c0 3172 1dc0
00000270: bbfc 69c0 9452 18bf 3272 2dc0 fabf f2bd
00000280: 51ff bebf 7850 0bc1 6975 f83e 3491 04c0
00000290: 8787 90bd 7ba9 95c0 d2d2 32c0 7a7e 753c
000002a0: 1acd 6d3d 6bf5 a23d 461d d9bc fba5 b4bc
000002b0: abba b73d 21e5 55bd af9a c33d 0e12 5c3d
000002c0: 7850 dbbd e936 edbd 5c82 883d 37f5 b13b
000002d0: 4bf1 1e3d 7a16 243d 0ca2 ecbc 139f 19bc
000002e0: 840d 86bd 4cc9 f0bd e394 063c f46b dd3d
000002f0: 07a2 b33d 3937 debd 4cea d8bc a28f b1bd
00000300: 816d 1ebe cf77 2abd 9d8e f3bc 47a2 d1bc
00000310: 82d3 203d 2e68 88ba 53ea c5bd accd 0abd
00000320: 661c 00bd 32bd 27bd 095a 21be f48b e0bd
00000330: 199b b7bc 0d5e 18be 4432 1cbd 0338 efbd
00000340: e3ec be3b 9bd6 5fbd edff 45bd ad6a dd3d
00000350: 7d52 a0bd bddc a23d 1a8b 10bd 65d6 893d
00000360: 3bb1 41bd 7044 c33d a78b a8bd 3480 0bbc
00000370: 6860 5e3d ac16 42bd 6ef4 babd 38e2 1abd
00000380: 9cba 8bbd 9407 23be 5175 0b3d bff2 b43d
00000390: c3f7 063d 449a adbc 8383 09bd 7239 62bc
000003a0: 4633 b6bd 7e82 e83d 6f6f 41bd 9330 e8bd
000003b0: 54e5 26ba c95f 1bbe 37ad bcbc fd4b 84bd
000003c0: 1408 26be cefd 90bd 89ad e7bc 25d1 fdbb
000003d0: 2a47 8b3c 16dc 05bd e117 ebbc d7a2 d5bd
000003e0: 4a23 843d 51c1 d9bd 26d7 58bd 5709 273d
000003f0: d735 56c0 23c2 16c0 ad2f 2cc0 d953 06c0
-7.7535563 -0.43368557 4.649362 0.41865468 1.3094422 3.0181823 -6.290191 -3.9350047
-0.67285025 0.23951803 4.0607834 3.1682725 -1.5642724 -4.755972 0.5861562 -2.3266375
-2.661569 -3.2643566 5.050481 -1.8194139 -1.3269134 -1.4108906 0.093847975 -0.49380404
-1.7639686 -3.4972506 -3.982712 -2.6588564 -7.7214427 -3.2959108 -4.516039 -2.4139848
-1.3433971 -2.1878762 -4.6554484 -2.1529505 -5.817294 -3.272599 -5.155552 -3.7198744
-2.9054961 -0.76706266 8.438032 4.5421453 10.473852 0.46859175 -3.965169 2.6263778
-3.876463 -7.675382 -8.669808 9.733255 -4.2005615 6.9002047 12.866482 -2.6490245
-3.4650939 2.8648133 10.638161 6.3419614 -0.18188708 4.6639886 -2.8267076 -1.082696
0.8621171 -2.2361298 -8.374866 4.667803 0.060208853 -6.823923 -5.125539 -4.0009747
-4.4166203 -0.91653883 -1.9113891 -9.704614 -8.633301 -11.050655 5.6341834 -10.125186
0.52938074 -0.5857836 -13.016063 -16.572418 -1.6189208 -0.7687798 -1.3941252 -6.1721187
-3.217148 -1.744432 0.9485019 -2.7689025 0.34932667 -1.6296719 1.6595826 -2.1560829
-0.5389355 -2.4782128 -0.8530846 0.27351075 0.9415386 -0.048874278 -2.1906018 1.4399811
-0.34057838 -1.3802977 -0.74968004 -4.8950386 -1.3467067 -2.5247254 -0.12711787 -1.8733552
-0.7203945 -2.1613972 0.11250546 -1.9766684 -2.7401512 -1.4955765 -4.7622766 -1.4812216
-4.210298 1.038939 -2.5467367 -2.2791574 -2.3041637 -1.7655877 -4.57591 -1.5928028
-5.6953034 -2.5081525 -3.1157 0.054491885 1.6046083 0.17494878 -1.8726809 -1.5439337
-0.47233468 3.2443662 2.995393 -0.8156112 -4.1077275 -3.6253707 -1.7415992 1.3672663
2.0150163 3.3404775 -4.940868 -6.576008 -0.79221034 0.107228965 0.66893286 -3.1965928
2.2123246 -3.0087776 -5.533321 -2.4600947 -3.6560504 -0.59501004 -2.710095 -0.11853023
-1.4921666 -8.707146 0.48527077 -2.0713625 -0.070571 -4.6769385 -2.7941175 0.014983768
0.05805693 0.07956966 -0.026503216 -0.022051802 0.08971151 -0.052220467 0.09550988 0.053728156
-0.107087076 -0.11582739 0.06665489 0.005430843 0.038804334 0.040060498 -0.028885864 -0.009376305
-0.06545547 -0.11757144 0.008214208 0.10811606 0.08771139 -0.10850377 -0.026478909 -0.08669974
-0.1547146 -0.041618165 -0.02973109 -0.025590075 0.03926421 -0.0010407025 -0.096638344 -0.03388755
-0.031277083 -0.040951915 -0.15757002 -0.10964194 -0.022412824 -0.14879628 -0.038133875 -0.11680605
0.005826579 -0.054648023 -0.048339773 0.108113624 -0.078282334 0.07952259 -0.035288908 0.06730346
-0.04728816 0.09534538 -0.082297616 -0.008514453 0.05429116 -0.047384903 -0.091286525 -0.037813395
-0.06822702 -0.1592086 0.03404743 0.08835363 0.032951128 -0.021191724 -0.033572685 -0.013807641
-0.088964984 0.113530144 -0.047225412 -0.1133739 -0.000636657 -0.15173258 -0.023031814 -0.06459806
-0.16214019 -0.070796594 -0.02828099 -0.0077458792 0.017001707 -0.032680593 -0.02869791 -0.1043145
0.06452043 -0.10632575 -0.052939557 0.04078039 -3.3470361 -2.3555992 -2.69041 -2.0988677

bias f4 [64]
00000000: 8143 d8c0 cd78 7cc0 7309 febd fffc 5fc0
00000010: 5901 02c1 a6df 69c0 86f6 a4c0 08df 97c0
00000020: 238e acbc ebbf 0c40 fbaa ac40 8437 8dc0
00000030: bfc3 5abf ae86 d7c0 3072 78c0 3eab e33f
00000040: 28de 31be e05a acc0 0df1 d2c0 a930 eebe
00000050: 4f54 d0c0 b6ba b2c0 9fbd e7be 698e b8c0
00000060: 8a4f 97c0 aee0 60c0 1f04 53bf f59f 6c40
00000070: c0bf 35be 7c91 a5c0 374e 96c0 da9f bdc0
00000080: aedf 86c0 e580 72c0 c2d2 b6c0 71d4 ebc0
00000090: 270d 2140 c984 06bf 33fe a3c0 cf83 a1c0
000000a0: f466 a1c0 9019 7140 a175 8cc0 2e6a d9c0
000000b0: 2051 9dc0 c5d0 c7be dc81 52c0 ce3d 07c0
000000c0: f243 fcbe b6f9 afbb 893b ddc0 5108 d0be
000000d0: c2de d0be 3e41 03c0 af03 65c0 45bf f5bf
000000e0: 0d18 8ac0 744e c4c0 d942 86c0 6c16 d6c0
000000f0: f450 b0c0 61fa 05c0 2b15 e6be f3cb 7ec0
-6.75824 -3.944873 -0.12404146 -3.4998167 -8.125329 -3.6542754 -5.155093 -4.7459755
-0.02106387 2.1992137 5.3958716 -4.413027 -0.85454935 -6.7351904 -3.8819695 1.7786634
-0.17369902 -5.386093 -6.591925 -0.465215 -6.5102916 -5.585292 -0.45261857 -5.767384
-4.7284594 -3.5137134 -0.82428163 3.697263 -0.17748928 -5.1740093 -4.6970477 -5.925763
-4.2148046 -3.789117 -5.7132273 -7.369683 2.5164278 -0.52546364 -5.12478 -5.04734
-5.0438175 3.7671852 -4.389359 -6.7942114 -4.916153 -0.39026466 -3.289176 -2.1131473
-0.49270588 -0.005370344 -6.9135175 -0.40631345 -0.4079495 -2.050857 -3.5783498 -1.9198996
-4.315436 -6.134577 -4.19566 -6.690237 -5.509882 -2.093407 -0.44938025 -3.981198

weight f4 [7, 64]
00000000: 2c08 c940 772e fb3f 4bca e5bb b8de 9f40
00000010: dff6 8941 4e6e 0641 ba9a d240 50bc 8840
00000020: 997a 05bd 665b 3240 507c 2d40 254f 0e41
00000030: 93d2 2f40 59f6 f23f 1593 2e41 f87f fb40
00000040: 128c acbc 2c2d 0540 3149 a140 b7f8 b0bb
00000050: 0825 c640 f605 4441 e45a 3abe 6945 0f41
00000060: a2dd 8c40 a0a4 2e41 d7fa 3540 374f 1fc0
00000070: eec9 c6bc 00fa f040 966e 9e40 f4e4 e140
00000080: 28b9 cc40 7baf 253f 2bd1 1541 cfba d040
00000090: 7dcb b4c0 e8fc 87bd 4e8b 4f40 f01d bb40
000000a0: 12a2 1240 1286 8b40 815e 413e 4626 5a40
000000b0: cda3 5e40 3200 94bc 244a ed40 e122 b6c0
000000c0: a9b9 c640 be80 adc0 2335 0e41 32a5 c63f
000000d0: 6125 95be bb6d 8e3f 16c2 b440 812d c93f
000000e0: 795a 0841 90fb 2141 34b7 ff40 6141 0a41
000000f0: 7958 a740 28bc ca40 64b9 c4bc 32e8 f1be
00000100: f3c4 2441 a24a c93f 7815 34bd 38a6 2641
00000110: 2474 4a41 89f5 9c40 0ce4 9e40 198f ff40
00000120: af55 b240 a813 8840 0b20 db40 adc7 1640
00000130: b678 0740 3d1e c340 c6c6 d240 09f9 8e40
00000140: a883 99bc ad1f 4e40 a2f9 8140 d3c4 be3d
00000150: 6b38 ab40 92b9 4141 09ed 723d c349 e040
00000160: acfe 7e3e 4751 1641 ab64 b9be bf21 44c0
00000170: f334 a63d ce49 0c41 7ed1 6f40 b081 d940
00000180: 9d4a 2740 01e2 0140 886b 5640 39f0 e040
00000190: 788e cd3f 0b8b 4b3d 316e 2a41 0915 da40
000001a0: afe0 1141 cbab 7740 e989 ca40 063d a740
000001b0: dea4 acbe eebe 98bc 48a5 8340 9335 b0c0
000001c0: 7aae c640 6790 4ac0 f232 5741 ebda 8c3f
000001d0: fdab 493d 6a2a 0c41 bdd6 ca3f 1988 fdbe
000001e0: 5e3f 9b40 7c70 f340 1107 0341 e64d 4641
000001f0: 1fa4 6f40 e5da 3a41 9d84 d6bd 3649 403e
00000200: f3eb 1f41 621c a440 e577 dcbb 665e 1241
00000210: 329e 8141 41e5 d640 110b 2741 237a fe40
00000220: 9186 ef3f f4fe 7e40 ed6b 8140 72b6 5a41
00000230: a5cd 1540 b635 be40 f92b 1141 265c cd40
00000240: 7a07 753d 8bed d240 7f49 a140 e16d 783d
00000250: b797 ec40 75c2 e040 b5c0 3a3c 23e4 2f41
00000260: a79f 9140 9daf ee40 e88e a240 4680 0fc0
00000270: 14fa 19be 84bd f640 3703 b240 1bb8 0c41
00000280: ffe8 7d40 156a 8bc0 e02d d940 1568 9140
00000290: dfc5 85c0 d497 9abe 7b74 5240 6087 9140
000002a0: a721 f840 c955 8940 238a 0341 daee d240
000002b0: c56c 2b41 dc18 30be 23ef 3f40 cf12 76c0
000002c0: f0ec 01c0 a7ae 20c1 3c38 9940 c6c5 e03f
000002d0: 494f c43b bfe1 75be 637a 4040 d02f cf40
000002e0: 2f4a f340 e141 0e41 dcea 0341 5423 1641
000002f0: 4542 ef40 aae8 2641 da62 093d e062 b3bf
00000300: e010 1941 dea0 793f 6180 ad3d fcc6 2741
00000310: 6c8b 4c41 42b3 a03f e354 0441 7ba5 c540
00000320: 8385 5340 5426 9b40 53e3 b540 1850 2e41
00000330: ee2b 2d40 3c81 ec40 ed6c ff40 8c75 3d41
00000340: 1339 fc3d 130f 2340 b2c3 e540 30d4 973e
00000350: d120 e440 7c9d b940 ae2e 6fbd ee5b 0441
00000360: afe2 7540 46d3 4541 25db 2741 8416 2dc0
00000370: b491 843b 3655 1740 0b16 ae40 b06b 0541
00000380: 52d7 6840 e047 923f 5b0a fa40 c54e 3341
00000390: ca81 8dbe 6d07 ca3c d54d 1041 6a2f ee40
000003a0: 4dbe 4840 f907 3040 87da 8940 a957 6140
000003b0: 2c2e 6540 27cc 9f3d 6e33 7e40 0f19 9240
000003c0: 288c ea40 f6d7 bcc0 095e c540 56fe df3e
000003d0: 0a4b e4bd a47f fa40 5dc7 3340 cb0d 6b40
000003e0: d50c ee40 24e6 1341 a99a e440 025a 7f41
000003f0: 7f96 3341 cc97 0e41 fcb4 6a3e 0ae3 e0bf
6.2822475 1.9623555 -0.0070126406 4.9959373 17.245543 8.40193 6.5813875 4.2729874
-0.03258762 2.7868285 2.7107124 8.894322 2.7472274 1.8981429 10.910909 7.859371
-0.021062884 2.080882 5.0401845 -0.005400743 6.1920204 12.251455 -0.18198735 8.954446
4.402055 10.915192 2.843435 -2.48921 -0.02426621 7.5305176 4.9509993 7.0591984
6.397602 0.64720887 9.363566 6.522804 -5.64984 -0.06640035 3.2428775 5.8474045
2.291142 4.360116 0.18883707 3.408586 3.4787476 -0.0180665 7.4153004 -5.6917577
6.2101636 -5.4219656 8.887973 1.5519164 -0.2913008 1.1127237 5.648692 1.5717012
8.522088 10.123917 7.9911137 8.640962 5.22955 6.3354683 -0.024014182 -0.47247463
10.298083 1.5725901 -0.043965787 10.415581 12.653355 4.9049726 4.9653378 7.986218
5.5729594 4.2523994 6.8476615 2.3559372 2.1167426 6.097441 6.5867643 4.4679
-0.018739536 3.2206833 4.0617228 0.09314885 5.350637 12.107805 0.059308086 7.009004
0.24901837 9.394843 -0.36209616 -3.0645597 0.08115568 8.768019 3.7471614 6.797081
2.613929 2.0294192 3.3503132 7.029324 1.6059103 0.04969315 10.651902 6.815068
9.117354 3.8698604 6.3293347 5.226199 -0.33719534 -0.01864573 4.113926 -5.50654
6.2087984 -3.1650636 13.449938 1.1004308 0.049236286 8.760355 1.5846783 -0.49517897
4.8514853 7.607481 8.189225 12.394018 3.7443922 11.678441 -0.10474513 0.18777928
9.995105 5.1284647 -0.0067281597 9.1480465 16.202244 6.715485 10.440202 7.9524093
1.8712941 3.984311 4.0444245 13.669542 2.3406765 5.9440565 9.0732355 6.4174986
0.059821583 6.591497 5.0402217 0.060651664 7.39352 7.0237374 0.011398484 10.993197
4.550739 7.458937 5.0799446 -2.2422042 -0.15036803 7.710634 5.5628924 8.794948
3.967346 -4.3566995 6.78685 4.5439553 -4.180404 -0.3019396 3.2883594 4.5477753
7.754108 4.291722 8.221225 6.5916567 10.714055 -0.17196983 2.9989707 -3.844898
-2.0300865 -10.04264 4.7881145 1.7560356 0.005990897 -0.24011897 3.00747 6.4745865
7.6028056 8.891084 8.244839 9.383625 7.4768395 10.431803 0.033541538 -1.4014549
9.56662 0.9751109 0.08471752 10.48608 12.784039 1.2554705 8.270724 6.1764503
3.305024 4.8484287 5.6839995 10.894554 2.7058063 7.3907757 7.9820466 11.841198
0.123155735 2.547795 7.1801386 0.29654074 7.129006 5.800474 -0.058394127 8.272444
3.8419607 12.36408 10.491002 -2.7044992 0.0040456895 2.3645759 5.440191 8.338791
3.638142 1.1428185 7.813764 11.206731 -0.27638084 0.024661744 9.019002 7.443288
3.136615 2.7504866 4.3079257 3.5209754 3.580943 0.07802611 3.971889 4.565559
7.329609 -5.9013624 6.167729 0.4374873 -0.11147125 7.828081 2.8090432 3.6727169
7.4390664 9.243687 7.1438794 15.959475 11.224242 8.91206 0.22920603 -1.7569287

bias f4 [7]
00000000: 2de8 3440 5317 4341 ccfe b040 d56a d840
00000010: 4648 fa40 a9a6 99c0 bf67 e33f
2.826671 12.193194 5.531103 6.763041 7.8213224 -4.8015943 1.7766036
